{"format": "graph-model", "generatedBy": "2.1.0", "convertedBy": "TensorFlow.js Converter v2.8.1", "signature": {"inputs": {"image_input:0": {"name": "image_input:0", "dtype": "DT_FLOAT", "tensorShape": {"dim": [{"size": "-1"}, {"size": "-1"}, {"size": "-1"}, {"size": "3"}]}}}, "outputs": {"Identity:0": {"name": "Identity:0", "dtype": "DT_FLOAT", "tensorShape": {"dim": [{"size": "-1"}, {"size": "1000"}]}}}}, "modelTopology": {"node": [{"name": "image_input", "op": "Placeholder", "attr": {"dtype": {"type": "DT_FLOAT"}, "shape": {"shape": {"dim": [{"size": "-1"}, {"size": "-1"}, {"size": "-1"}, {"size": "3"}]}}}}, {"name": "StatefulPartitionedCall/model/stem_conv2d/Conv2D_weights", "op": "Const", "attr": {"dtype": {"type": "DT_FLOAT"}, "value": {"tensor": {"dtype": "DT_FLOAT", "tensorShape": {"dim": [{"size": "3"}, {"size": "3"}, {"size": "3"}, {"size": "32"}]}}}}}, {"name": "StatefulPartitionedCall/model/stem_conv2d/Conv2D_bn_offset", "op": "Const", "attr": {"value": {"tensor": {"dtype": "DT_FLOAT", "tensorShape": {"dim": [{"size": "32"}]}}}, "dtype": {"type": "DT_FLOAT"}}}, {"name": "StatefulPartitionedCall/model/stack_0/block_0/depthwise_conv2d/depthwise_weights", "op": "Const", "attr": {"value": {"tensor": {"dtype": "DT_FLOAT", "tensorShape": {"dim": [{"size": "3"}, {"size": "3"}, {"size": "32"}, {"size": "1"}]}}}, "dtype": {"type": "DT_FLOAT"}}}, {"name": "StatefulPartitionedCall/model/stack_0/block_0/depthwise_conv2d/depthwise_bn_offset", "op": "Const", "attr": {"dtype": {"type": "DT_FLOAT"}, "value": {"tensor": {"dtype": "DT_FLOAT", "tensorShape": {"dim": [{"size": "32"}]}}}}}, {"name": "StatefulPartitionedCall/model/stack_5/block_3/depthwise_conv2d/depthwise_weights", "op": "Const", "attr": {"dtype": {"type": "DT_FLOAT"}, "value": {"tensor": {"dtype": "DT_FLOAT", "tensorShape": {"dim": [{"size": "5"}, {"size": "5"}, {"size": "1152"}, {"size": "1"}]}}}}}, {"name": "StatefulPartitionedCall/model/stack_0/block_0/project_conv2d/Conv2D_weights", "op": "Const", "attr": {"dtype": {"type": "DT_FLOAT"}, "value": {"tensor": {"dtype": "DT_FLOAT", "tensorShape": {"dim": [{"size": "1"}, {"size": "1"}, {"size": "32"}, {"size": "16"}]}}}}}, {"name": "StatefulPartitionedCall/model/stack_0/block_0/project_conv2d/Conv2D_bn_offset", "op": "Const", "attr": {"value": {"tensor": {"dtype": "DT_FLOAT", "tensorShape": {"dim": [{"size": "16"}]}}}, "dtype": {"type": "DT_FLOAT"}}}, {"name": "StatefulPartitionedCall/model/stack_1/block_0/expand_conv2d/Conv2D_weights", "op": "Const", "attr": {"dtype": {"type": "DT_FLOAT"}, "value": {"tensor": {"dtype": "DT_FLOAT", "tensorShape": {"dim": [{"size": "1"}, {"size": "1"}, {"size": "16"}, {"size": "96"}]}}}}}, {"name": "StatefulPartitionedCall/model/stack_5/block_3/depthwise_conv2d/depthwise_bn_offset", "op": "Const", "attr": {"dtype": {"type": "DT_FLOAT"}, "value": {"tensor": {"dtype": "DT_FLOAT", "tensorShape": {"dim": [{"size": "1152"}]}}}}}, {"name": "StatefulPartitionedCall/model/stack_1/block_0/expand_conv2d/Conv2D_bn_offset", "op": "Const", "attr": {"dtype": {"type": "DT_FLOAT"}, "value": {"tensor": {"dtype": "DT_FLOAT", "tensorShape": {"dim": [{"size": "96"}]}}}}}, {"name": "StatefulPartitionedCall/model/stack_1/block_0/depthwise_conv2d/depthwise_weights", "op": "Const", "attr": {"value": {"tensor": {"dtype": "DT_FLOAT", "tensorShape": {"dim": [{"size": "3"}, {"size": "3"}, {"size": "96"}, {"size": "1"}]}}}, "dtype": {"type": "DT_FLOAT"}}}, {"name": "StatefulPartitionedCall/model/stack_1/block_0/depthwise_conv2d/depthwise_bn_offset", "op": "Const", "attr": {"value": {"tensor": {"dtype": "DT_FLOAT", "tensorShape": {"dim": [{"size": "96"}]}}}, "dtype": {"type": "DT_FLOAT"}}}, {"name": "StatefulPartitionedCall/model/stack_1/block_0/project_conv2d/Conv2D_weights", "op": "Const", "attr": {"dtype": {"type": "DT_FLOAT"}, "value": {"tensor": {"dtype": "DT_FLOAT", "tensorShape": {"dim": [{"size": "1"}, {"size": "1"}, {"size": "96"}, {"size": "24"}]}}}}}, {"name": "StatefulPartitionedCall/model/stack_1/block_0/project_conv2d/Conv2D_bn_offset", "op": "Const", "attr": {"value": {"tensor": {"dtype": "DT_FLOAT", "tensorShape": {"dim": [{"size": "24"}]}}}, "dtype": {"type": "DT_FLOAT"}}}, {"name": "StatefulPartitionedCall/model/stack_1/block_1/expand_conv2d/Conv2D_weights", "op": "Const", "attr": {"dtype": {"type": "DT_FLOAT"}, "value": {"tensor": {"dtype": "DT_FLOAT", "tensorShape": {"dim": [{"size": "1"}, {"size": "1"}, {"size": "24"}, {"size": "144"}]}}}}}, {"name": "StatefulPartitionedCall/model/stack_1/block_1/expand_conv2d/Conv2D_bn_offset", "op": "Const", "attr": {"dtype": {"type": "DT_FLOAT"}, "value": {"tensor": {"dtype": "DT_FLOAT", "tensorShape": {"dim": [{"size": "144"}]}}}}}, {"name": "StatefulPartitionedCall/model/stack_1/block_1/depthwise_conv2d/depthwise_weights", "op": "Const", "attr": {"dtype": {"type": "DT_FLOAT"}, "value": {"tensor": {"dtype": "DT_FLOAT", "tensorShape": {"dim": [{"size": "3"}, {"size": "3"}, {"size": "144"}, {"size": "1"}]}}}}}, {"name": "StatefulPartitionedCall/model/stack_1/block_1/depthwise_conv2d/depthwise_bn_offset", "op": "Const", "attr": {"dtype": {"type": "DT_FLOAT"}, "value": {"tensor": {"dtype": "DT_FLOAT", "tensorShape": {"dim": [{"size": "144"}]}}}}}, {"name": "StatefulPartitionedCall/model/stack_1/block_1/project_conv2d/Conv2D_weights", "op": "Const", "attr": {"value": {"tensor": {"dtype": "DT_FLOAT", "tensorShape": {"dim": [{"size": "1"}, {"size": "1"}, {"size": "144"}, {"size": "24"}]}}}, "dtype": {"type": "DT_FLOAT"}}}, {"name": "StatefulPartitionedCall/model/stack_1/block_1/project_conv2d/Conv2D_bn_offset", "op": "Const", "attr": {"value": {"tensor": {"dtype": "DT_FLOAT", "tensorShape": {"dim": [{"size": "24"}]}}}, "dtype": {"type": "DT_FLOAT"}}}, {"name": "StatefulPartitionedCall/model/stack_2/block_0/expand_conv2d/Conv2D_weights", "op": "Const", "attr": {"value": {"tensor": {"dtype": "DT_FLOAT", "tensorShape": {"dim": [{"size": "1"}, {"size": "1"}, {"size": "24"}, {"size": "144"}]}}}, "dtype": {"type": "DT_FLOAT"}}}, {"name": "StatefulPartitionedCall/model/stack_2/block_0/expand_conv2d/Conv2D_bn_offset", "op": "Const", "attr": {"dtype": {"type": "DT_FLOAT"}, "value": {"tensor": {"dtype": "DT_FLOAT", "tensorShape": {"dim": [{"size": "144"}]}}}}}, {"name": "StatefulPartitionedCall/model/stack_2/block_0/depthwise_conv2d/depthwise_weights", "op": "Const", "attr": {"value": {"tensor": {"dtype": "DT_FLOAT", "tensorShape": {"dim": [{"size": "5"}, {"size": "5"}, {"size": "144"}, {"size": "1"}]}}}, "dtype": {"type": "DT_FLOAT"}}}, {"name": "StatefulPartitionedCall/model/stack_2/block_0/depthwise_conv2d/depthwise_bn_offset", "op": "Const", "attr": {"dtype": {"type": "DT_FLOAT"}, "value": {"tensor": {"dtype": "DT_FLOAT", "tensorShape": {"dim": [{"size": "144"}]}}}}}, {"name": "StatefulPartitionedCall/model/top_conv2d/Conv2D_bn_offset", "op": "Const", "attr": {"value": {"tensor": {"dtype": "DT_FLOAT", "tensorShape": {"dim": [{"size": "1280"}]}}}, "dtype": {"type": "DT_FLOAT"}}}, {"name": "StatefulPartitionedCall/model/stack_2/block_0/project_conv2d/Conv2D_weights", "op": "Const", "attr": {"dtype": {"type": "DT_FLOAT"}, "value": {"tensor": {"dtype": "DT_FLOAT", "tensorShape": {"dim": [{"size": "1"}, {"size": "1"}, {"size": "144"}, {"size": "40"}]}}}}}, {"name": "StatefulPartitionedCall/model/stack_2/block_0/project_conv2d/Conv2D_bn_offset", "op": "Const", "attr": {"value": {"tensor": {"dtype": "DT_FLOAT", "tensorShape": {"dim": [{"size": "40"}]}}}, "dtype": {"type": "DT_FLOAT"}}}, {"name": "StatefulPartitionedCall/model/stack_2/block_1/expand_conv2d/Conv2D_weights", "op": "Const", "attr": {"value": {"tensor": {"dtype": "DT_FLOAT", "tensorShape": {"dim": [{"size": "1"}, {"size": "1"}, {"size": "40"}, {"size": "240"}]}}}, "dtype": {"type": "DT_FLOAT"}}}, {"name": "StatefulPartitionedCall/model/stack_2/block_1/expand_conv2d/Conv2D_bn_offset", "op": "Const", "attr": {"value": {"tensor": {"dtype": "DT_FLOAT", "tensorShape": {"dim": [{"size": "240"}]}}}, "dtype": {"type": "DT_FLOAT"}}}, {"name": "StatefulPartitionedCall/model/stack_2/block_1/depthwise_conv2d/depthwise_weights", "op": "Const", "attr": {"dtype": {"type": "DT_FLOAT"}, "value": {"tensor": {"dtype": "DT_FLOAT", "tensorShape": {"dim": [{"size": "5"}, {"size": "5"}, {"size": "240"}, {"size": "1"}]}}}}}, {"name": "StatefulPartitionedCall/model/stack_2/block_1/depthwise_conv2d/depthwise_bn_offset", "op": "Const", "attr": {"value": {"tensor": {"dtype": "DT_FLOAT", "tensorShape": {"dim": [{"size": "240"}]}}}, "dtype": {"type": "DT_FLOAT"}}}, {"name": "StatefulPartitionedCall/model/stack_2/block_1/project_conv2d/Conv2D_weights", "op": "Const", "attr": {"dtype": {"type": "DT_FLOAT"}, "value": {"tensor": {"dtype": "DT_FLOAT", "tensorShape": {"dim": [{"size": "1"}, {"size": "1"}, {"size": "240"}, {"size": "40"}]}}}}}, {"name": "StatefulPartitionedCall/model/stack_2/block_1/project_conv2d/Conv2D_bn_offset", "op": "Const", "attr": {"value": {"tensor": {"dtype": "DT_FLOAT", "tensorShape": {"dim": [{"size": "40"}]}}}, "dtype": {"type": "DT_FLOAT"}}}, {"name": "StatefulPartitionedCall/model/stack_3/block_0/expand_conv2d/Conv2D_weights", "op": "Const", "attr": {"dtype": {"type": "DT_FLOAT"}, "value": {"tensor": {"dtype": "DT_FLOAT", "tensorShape": {"dim": [{"size": "1"}, {"size": "1"}, {"size": "40"}, {"size": "240"}]}}}}}, {"name": "StatefulPartitionedCall/model/stack_3/block_0/expand_conv2d/Conv2D_bn_offset", "op": "Const", "attr": {"value": {"tensor": {"dtype": "DT_FLOAT", "tensorShape": {"dim": [{"size": "240"}]}}}, "dtype": {"type": "DT_FLOAT"}}}, {"name": "StatefulPartitionedCall/model/stack_3/block_0/depthwise_conv2d/depthwise_weights", "op": "Const", "attr": {"value": {"tensor": {"dtype": "DT_FLOAT", "tensorShape": {"dim": [{"size": "3"}, {"size": "3"}, {"size": "240"}, {"size": "1"}]}}}, "dtype": {"type": "DT_FLOAT"}}}, {"name": "StatefulPartitionedCall/model/stack_3/block_0/depthwise_conv2d/depthwise_bn_offset", "op": "Const", "attr": {"dtype": {"type": "DT_FLOAT"}, "value": {"tensor": {"dtype": "DT_FLOAT", "tensorShape": {"dim": [{"size": "240"}]}}}}}, {"name": "StatefulPartitionedCall/model/stack_5/block_3/project_conv2d/Conv2D_weights", "op": "Const", "attr": {"value": {"tensor": {"dtype": "DT_FLOAT", "tensorShape": {"dim": [{"size": "1"}, {"size": "1"}, {"size": "1152"}, {"size": "192"}]}}}, "dtype": {"type": "DT_FLOAT"}}}, {"name": "StatefulPartitionedCall/model/stack_3/block_0/project_conv2d/Conv2D_weights", "op": "Const", "attr": {"value": {"tensor": {"dtype": "DT_FLOAT", "tensorShape": {"dim": [{"size": "1"}, {"size": "1"}, {"size": "240"}, {"size": "80"}]}}}, "dtype": {"type": "DT_FLOAT"}}}, {"name": "StatefulPartitionedCall/model/stack_5/block_3/project_conv2d/Conv2D_bn_offset", "op": "Const", "attr": {"value": {"tensor": {"dtype": "DT_FLOAT", "tensorShape": {"dim": [{"size": "192"}]}}}, "dtype": {"type": "DT_FLOAT"}}}, {"name": "StatefulPartitionedCall/model/stack_3/block_0/project_conv2d/Conv2D_bn_offset", "op": "Const", "attr": {"value": {"tensor": {"dtype": "DT_FLOAT", "tensorShape": {"dim": [{"size": "80"}]}}}, "dtype": {"type": "DT_FLOAT"}}}, {"name": "StatefulPartitionedCall/model/stack_3/block_1/expand_conv2d/Conv2D_weights", "op": "Const", "attr": {"value": {"tensor": {"dtype": "DT_FLOAT", "tensorShape": {"dim": [{"size": "1"}, {"size": "1"}, {"size": "80"}, {"size": "480"}]}}}, "dtype": {"type": "DT_FLOAT"}}}, {"name": "StatefulPartitionedCall/model/stack_3/block_1/expand_conv2d/Conv2D_bn_offset", "op": "Const", "attr": {"value": {"tensor": {"dtype": "DT_FLOAT", "tensorShape": {"dim": [{"size": "480"}]}}}, "dtype": {"type": "DT_FLOAT"}}}, {"name": "StatefulPartitionedCall/model/stack_3/block_1/depthwise_conv2d/depthwise_weights", "op": "Const", "attr": {"dtype": {"type": "DT_FLOAT"}, "value": {"tensor": {"dtype": "DT_FLOAT", "tensorShape": {"dim": [{"size": "3"}, {"size": "3"}, {"size": "480"}, {"size": "1"}]}}}}}, {"name": "StatefulPartitionedCall/model/stack_3/block_1/depthwise_conv2d/depthwise_bn_offset", "op": "Const", "attr": {"dtype": {"type": "DT_FLOAT"}, "value": {"tensor": {"dtype": "DT_FLOAT", "tensorShape": {"dim": [{"size": "480"}]}}}}}, {"name": "StatefulPartitionedCall/model/stack_6/block_0/expand_conv2d/Conv2D_weights", "op": "Const", "attr": {"value": {"tensor": {"dtype": "DT_FLOAT", "tensorShape": {"dim": [{"size": "1"}, {"size": "1"}, {"size": "192"}, {"size": "1152"}]}}}, "dtype": {"type": "DT_FLOAT"}}}, {"name": "StatefulPartitionedCall/model/stack_3/block_1/project_conv2d/Conv2D_weights", "op": "Const", "attr": {"value": {"tensor": {"dtype": "DT_FLOAT", "tensorShape": {"dim": [{"size": "1"}, {"size": "1"}, {"size": "480"}, {"size": "80"}]}}}, "dtype": {"type": "DT_FLOAT"}}}, {"name": "StatefulPartitionedCall/model/stack_3/block_1/project_conv2d/Conv2D_bn_offset", "op": "Const", "attr": {"dtype": {"type": "DT_FLOAT"}, "value": {"tensor": {"dtype": "DT_FLOAT", "tensorShape": {"dim": [{"size": "80"}]}}}}}, {"name": "StatefulPartitionedCall/model/stack_3/block_2/expand_conv2d/Conv2D_weights", "op": "Const", "attr": {"dtype": {"type": "DT_FLOAT"}, "value": {"tensor": {"dtype": "DT_FLOAT", "tensorShape": {"dim": [{"size": "1"}, {"size": "1"}, {"size": "80"}, {"size": "480"}]}}}}}, {"name": "StatefulPartitionedCall/model/stack_6/block_0/expand_conv2d/Conv2D_bn_offset", "op": "Const", "attr": {"value": {"tensor": {"dtype": "DT_FLOAT", "tensorShape": {"dim": [{"size": "1152"}]}}}, "dtype": {"type": "DT_FLOAT"}}}, {"name": "StatefulPartitionedCall/model/stack_3/block_2/expand_conv2d/Conv2D_bn_offset", "op": "Const", "attr": {"value": {"tensor": {"dtype": "DT_FLOAT", "tensorShape": {"dim": [{"size": "480"}]}}}, "dtype": {"type": "DT_FLOAT"}}}, {"name": "StatefulPartitionedCall/model/stack_3/block_2/depthwise_conv2d/depthwise_weights", "op": "Const", "attr": {"value": {"tensor": {"dtype": "DT_FLOAT", "tensorShape": {"dim": [{"size": "3"}, {"size": "3"}, {"size": "480"}, {"size": "1"}]}}}, "dtype": {"type": "DT_FLOAT"}}}, {"name": "StatefulPartitionedCall/model/stack_3/block_2/depthwise_conv2d/depthwise_bn_offset", "op": "Const", "attr": {"dtype": {"type": "DT_FLOAT"}, "value": {"tensor": {"dtype": "DT_FLOAT", "tensorShape": {"dim": [{"size": "480"}]}}}}}, {"name": "StatefulPartitionedCall/model/stack_3/block_2/project_conv2d/Conv2D_weights", "op": "Const", "attr": {"dtype": {"type": "DT_FLOAT"}, "value": {"tensor": {"dtype": "DT_FLOAT", "tensorShape": {"dim": [{"size": "1"}, {"size": "1"}, {"size": "480"}, {"size": "80"}]}}}}}, {"name": "StatefulPartitionedCall/model/stack_3/block_2/project_conv2d/Conv2D_bn_offset", "op": "Const", "attr": {"dtype": {"type": "DT_FLOAT"}, "value": {"tensor": {"dtype": "DT_FLOAT", "tensorShape": {"dim": [{"size": "80"}]}}}}}, {"name": "StatefulPartitionedCall/model/stack_4/block_0/expand_conv2d/Conv2D_weights", "op": "Const", "attr": {"value": {"tensor": {"dtype": "DT_FLOAT", "tensorShape": {"dim": [{"size": "1"}, {"size": "1"}, {"size": "80"}, {"size": "480"}]}}}, "dtype": {"type": "DT_FLOAT"}}}, {"name": "StatefulPartitionedCall/model/stack_6/block_0/depthwise_conv2d/depthwise_weights", "op": "Const", "attr": {"value": {"tensor": {"dtype": "DT_FLOAT", "tensorShape": {"dim": [{"size": "3"}, {"size": "3"}, {"size": "1152"}, {"size": "1"}]}}}, "dtype": {"type": "DT_FLOAT"}}}, {"name": "StatefulPartitionedCall/model/stack_4/block_0/expand_conv2d/Conv2D_bn_offset", "op": "Const", "attr": {"dtype": {"type": "DT_FLOAT"}, "value": {"tensor": {"dtype": "DT_FLOAT", "tensorShape": {"dim": [{"size": "480"}]}}}}}, {"name": "StatefulPartitionedCall/model/stack_4/block_0/depthwise_conv2d/depthwise_weights", "op": "Const", "attr": {"dtype": {"type": "DT_FLOAT"}, "value": {"tensor": {"dtype": "DT_FLOAT", "tensorShape": {"dim": [{"size": "5"}, {"size": "5"}, {"size": "480"}, {"size": "1"}]}}}}}, {"name": "StatefulPartitionedCall/model/stack_4/block_0/depthwise_conv2d/depthwise_bn_offset", "op": "Const", "attr": {"value": {"tensor": {"dtype": "DT_FLOAT", "tensorShape": {"dim": [{"size": "480"}]}}}, "dtype": {"type": "DT_FLOAT"}}}, {"name": "StatefulPartitionedCall/model/stack_6/block_0/depthwise_conv2d/depthwise_bn_offset", "op": "Const", "attr": {"value": {"tensor": {"dtype": "DT_FLOAT", "tensorShape": {"dim": [{"size": "1152"}]}}}, "dtype": {"type": "DT_FLOAT"}}}, {"name": "StatefulPartitionedCall/model/stack_4/block_0/project_conv2d/Conv2D_weights", "op": "Const", "attr": {"value": {"tensor": {"dtype": "DT_FLOAT", "tensorShape": {"dim": [{"size": "1"}, {"size": "1"}, {"size": "480"}, {"size": "112"}]}}}, "dtype": {"type": "DT_FLOAT"}}}, {"name": "StatefulPartitionedCall/model/stack_4/block_0/project_conv2d/Conv2D_bn_offset", "op": "Const", "attr": {"dtype": {"type": "DT_FLOAT"}, "value": {"tensor": {"dtype": "DT_FLOAT", "tensorShape": {"dim": [{"size": "112"}]}}}}}, {"name": "StatefulPartitionedCall/model/stack_4/block_1/expand_conv2d/Conv2D_weights", "op": "Const", "attr": {"value": {"tensor": {"dtype": "DT_FLOAT", "tensorShape": {"dim": [{"size": "1"}, {"size": "1"}, {"size": "112"}, {"size": "672"}]}}}, "dtype": {"type": "DT_FLOAT"}}}, {"name": "StatefulPartitionedCall/model/stack_4/block_1/expand_conv2d/Conv2D_bn_offset", "op": "Const", "attr": {"dtype": {"type": "DT_FLOAT"}, "value": {"tensor": {"dtype": "DT_FLOAT", "tensorShape": {"dim": [{"size": "672"}]}}}}}, {"name": "StatefulPartitionedCall/model/stack_4/block_1/depthwise_conv2d/depthwise_weights", "op": "Const", "attr": {"dtype": {"type": "DT_FLOAT"}, "value": {"tensor": {"dtype": "DT_FLOAT", "tensorShape": {"dim": [{"size": "5"}, {"size": "5"}, {"size": "672"}, {"size": "1"}]}}}}}, {"name": "StatefulPartitionedCall/model/stack_4/block_1/depthwise_conv2d/depthwise_bn_offset", "op": "Const", "attr": {"dtype": {"type": "DT_FLOAT"}, "value": {"tensor": {"dtype": "DT_FLOAT", "tensorShape": {"dim": [{"size": "672"}]}}}}}, {"name": "StatefulPartitionedCall/model/stack_4/block_1/project_conv2d/Conv2D_weights", "op": "Const", "attr": {"dtype": {"type": "DT_FLOAT"}, "value": {"tensor": {"dtype": "DT_FLOAT", "tensorShape": {"dim": [{"size": "1"}, {"size": "1"}, {"size": "672"}, {"size": "112"}]}}}}}, {"name": "StatefulPartitionedCall/model/stack_4/block_1/project_conv2d/Conv2D_bn_offset", "op": "Const", "attr": {"dtype": {"type": "DT_FLOAT"}, "value": {"tensor": {"dtype": "DT_FLOAT", "tensorShape": {"dim": [{"size": "112"}]}}}}}, {"name": "StatefulPartitionedCall/model/stack_4/block_2/expand_conv2d/Conv2D_weights", "op": "Const", "attr": {"value": {"tensor": {"dtype": "DT_FLOAT", "tensorShape": {"dim": [{"size": "1"}, {"size": "1"}, {"size": "112"}, {"size": "672"}]}}}, "dtype": {"type": "DT_FLOAT"}}}, {"name": "StatefulPartitionedCall/model/stack_4/block_2/expand_conv2d/Conv2D_bn_offset", "op": "Const", "attr": {"dtype": {"type": "DT_FLOAT"}, "value": {"tensor": {"dtype": "DT_FLOAT", "tensorShape": {"dim": [{"size": "672"}]}}}}}, {"name": "StatefulPartitionedCall/model/stack_4/block_2/depthwise_conv2d/depthwise_weights", "op": "Const", "attr": {"value": {"tensor": {"dtype": "DT_FLOAT", "tensorShape": {"dim": [{"size": "5"}, {"size": "5"}, {"size": "672"}, {"size": "1"}]}}}, "dtype": {"type": "DT_FLOAT"}}}, {"name": "StatefulPartitionedCall/model/stack_4/block_2/depthwise_conv2d/depthwise_bn_offset", "op": "Const", "attr": {"value": {"tensor": {"dtype": "DT_FLOAT", "tensorShape": {"dim": [{"size": "672"}]}}}, "dtype": {"type": "DT_FLOAT"}}}, {"name": "StatefulPartitionedCall/model/stack_4/block_2/project_conv2d/Conv2D_weights", "op": "Const", "attr": {"value": {"tensor": {"dtype": "DT_FLOAT", "tensorShape": {"dim": [{"size": "1"}, {"size": "1"}, {"size": "672"}, {"size": "112"}]}}}, "dtype": {"type": "DT_FLOAT"}}}, {"name": "StatefulPartitionedCall/model/stack_4/block_2/project_conv2d/Conv2D_bn_offset", "op": "Const", "attr": {"dtype": {"type": "DT_FLOAT"}, "value": {"tensor": {"dtype": "DT_FLOAT", "tensorShape": {"dim": [{"size": "112"}]}}}}}, {"name": "StatefulPartitionedCall/model/stack_5/block_0/expand_conv2d/Conv2D_weights", "op": "Const", "attr": {"value": {"tensor": {"dtype": "DT_FLOAT", "tensorShape": {"dim": [{"size": "1"}, {"size": "1"}, {"size": "112"}, {"size": "672"}]}}}, "dtype": {"type": "DT_FLOAT"}}}, {"name": "StatefulPartitionedCall/model/stack_5/block_0/expand_conv2d/Conv2D_bn_offset", "op": "Const", "attr": {"value": {"tensor": {"dtype": "DT_FLOAT", "tensorShape": {"dim": [{"size": "672"}]}}}, "dtype": {"type": "DT_FLOAT"}}}, {"name": "StatefulPartitionedCall/model/stack_5/block_0/depthwise_conv2d/depthwise_weights", "op": "Const", "attr": {"dtype": {"type": "DT_FLOAT"}, "value": {"tensor": {"dtype": "DT_FLOAT", "tensorShape": {"dim": [{"size": "5"}, {"size": "5"}, {"size": "672"}, {"size": "1"}]}}}}}, {"name": "StatefulPartitionedCall/model/stack_5/block_0/depthwise_conv2d/depthwise_bn_offset", "op": "Const", "attr": {"dtype": {"type": "DT_FLOAT"}, "value": {"tensor": {"dtype": "DT_FLOAT", "tensorShape": {"dim": [{"size": "672"}]}}}}}, {"name": "StatefulPartitionedCall/model/stack_5/block_0/project_conv2d/Conv2D_weights", "op": "Const", "attr": {"value": {"tensor": {"dtype": "DT_FLOAT", "tensorShape": {"dim": [{"size": "1"}, {"size": "1"}, {"size": "672"}, {"size": "192"}]}}}, "dtype": {"type": "DT_FLOAT"}}}, {"name": "StatefulPartitionedCall/model/stack_5/block_0/project_conv2d/Conv2D_bn_offset", "op": "Const", "attr": {"value": {"tensor": {"dtype": "DT_FLOAT", "tensorShape": {"dim": [{"size": "192"}]}}}, "dtype": {"type": "DT_FLOAT"}}}, {"name": "StatefulPartitionedCall/model/stack_5/block_1/expand_conv2d/Conv2D_weights", "op": "Const", "attr": {"value": {"tensor": {"dtype": "DT_FLOAT", "tensorShape": {"dim": [{"size": "1"}, {"size": "1"}, {"size": "192"}, {"size": "1152"}]}}}, "dtype": {"type": "DT_FLOAT"}}}, {"name": "StatefulPartitionedCall/model/stack_5/block_1/expand_conv2d/Conv2D_bn_offset", "op": "Const", "attr": {"dtype": {"type": "DT_FLOAT"}, "value": {"tensor": {"dtype": "DT_FLOAT", "tensorShape": {"dim": [{"size": "1152"}]}}}}}, {"name": "StatefulPartitionedCall/model/stack_5/block_1/depthwise_conv2d/depthwise_weights", "op": "Const", "attr": {"value": {"tensor": {"dtype": "DT_FLOAT", "tensorShape": {"dim": [{"size": "5"}, {"size": "5"}, {"size": "1152"}, {"size": "1"}]}}}, "dtype": {"type": "DT_FLOAT"}}}, {"name": "StatefulPartitionedCall/model/stack_5/block_1/depthwise_conv2d/depthwise_bn_offset", "op": "Const", "attr": {"dtype": {"type": "DT_FLOAT"}, "value": {"tensor": {"dtype": "DT_FLOAT", "tensorShape": {"dim": [{"size": "1152"}]}}}}}, {"name": "StatefulPartitionedCall/model/stack_5/block_1/project_conv2d/Conv2D_weights", "op": "Const", "attr": {"dtype": {"type": "DT_FLOAT"}, "value": {"tensor": {"dtype": "DT_FLOAT", "tensorShape": {"dim": [{"size": "1"}, {"size": "1"}, {"size": "1152"}, {"size": "192"}]}}}}}, {"name": "StatefulPartitionedCall/model/stack_6/block_0/project_conv2d/Conv2D_weights", "op": "Const", "attr": {"dtype": {"type": "DT_FLOAT"}, "value": {"tensor": {"dtype": "DT_FLOAT", "tensorShape": {"dim": [{"size": "1"}, {"size": "1"}, {"size": "1152"}, {"size": "320"}]}}}}}, {"name": "StatefulPartitionedCall/model/stack_5/block_1/project_conv2d/Conv2D_bn_offset", "op": "Const", "attr": {"value": {"tensor": {"dtype": "DT_FLOAT", "tensorShape": {"dim": [{"size": "192"}]}}}, "dtype": {"type": "DT_FLOAT"}}}, {"name": "StatefulPartitionedCall/model/stack_5/block_2/expand_conv2d/Conv2D_weights", "op": "Const", "attr": {"value": {"tensor": {"dtype": "DT_FLOAT", "tensorShape": {"dim": [{"size": "1"}, {"size": "1"}, {"size": "192"}, {"size": "1152"}]}}}, "dtype": {"type": "DT_FLOAT"}}}, {"name": "StatefulPartitionedCall/model/stack_5/block_2/expand_conv2d/Conv2D_bn_offset", "op": "Const", "attr": {"value": {"tensor": {"dtype": "DT_FLOAT", "tensorShape": {"dim": [{"size": "1152"}]}}}, "dtype": {"type": "DT_FLOAT"}}}, {"name": "StatefulPartitionedCall/model/stack_5/block_2/depthwise_conv2d/depthwise_weights", "op": "Const", "attr": {"value": {"tensor": {"dtype": "DT_FLOAT", "tensorShape": {"dim": [{"size": "5"}, {"size": "5"}, {"size": "1152"}, {"size": "1"}]}}}, "dtype": {"type": "DT_FLOAT"}}}, {"name": "StatefulPartitionedCall/model/stack_5/block_2/depthwise_conv2d/depthwise_bn_offset", "op": "Const", "attr": {"value": {"tensor": {"dtype": "DT_FLOAT", "tensorShape": {"dim": [{"size": "1152"}]}}}, "dtype": {"type": "DT_FLOAT"}}}, {"name": "StatefulPartitionedCall/model/stack_6/block_0/project_conv2d/Conv2D_bn_offset", "op": "Const", "attr": {"dtype": {"type": "DT_FLOAT"}, "value": {"tensor": {"dtype": "DT_FLOAT", "tensorShape": {"dim": [{"size": "320"}]}}}}}, {"name": "StatefulPartitionedCall/model/stack_5/block_2/project_conv2d/Conv2D_weights", "op": "Const", "attr": {"value": {"tensor": {"dtype": "DT_FLOAT", "tensorShape": {"dim": [{"size": "1"}, {"size": "1"}, {"size": "1152"}, {"size": "192"}]}}}, "dtype": {"type": "DT_FLOAT"}}}, {"name": "StatefulPartitionedCall/model/top_conv2d/Conv2D_weights", "op": "Const", "attr": {"value": {"tensor": {"dtype": "DT_FLOAT", "tensorShape": {"dim": [{"size": "1"}, {"size": "1"}, {"size": "320"}, {"size": "1280"}]}}}, "dtype": {"type": "DT_FLOAT"}}}, {"name": "StatefulPartitionedCall/model/stack_5/block_2/project_conv2d/Conv2D_bn_offset", "op": "Const", "attr": {"value": {"tensor": {"dtype": "DT_FLOAT", "tensorShape": {"dim": [{"size": "192"}]}}}, "dtype": {"type": "DT_FLOAT"}}}, {"name": "StatefulPartitionedCall/model/stack_5/block_3/expand_conv2d/Conv2D_weights", "op": "Const", "attr": {"dtype": {"type": "DT_FLOAT"}, "value": {"tensor": {"dtype": "DT_FLOAT", "tensorShape": {"dim": [{"size": "1"}, {"size": "1"}, {"size": "192"}, {"size": "1152"}]}}}}}, {"name": "StatefulPartitionedCall/model/stack_5/block_3/expand_conv2d/Conv2D_bn_offset", "op": "Const", "attr": {"dtype": {"type": "DT_FLOAT"}, "value": {"tensor": {"dtype": "DT_FLOAT", "tensorShape": {"dim": [{"size": "1152"}]}}}}}, {"name": "StatefulPartitionedCall/model/tf_op_layer_BroadcastTo_1/BroadcastTo_1/input", "op": "Const", "input": ["^image_input"], "attr": {"value": {"tensor": {"dtype": "DT_FLOAT", "tensorShape": {"dim": [{"size": "1"}, {"size": "1"}, {"size": "3"}]}}}, "dtype": {"type": "DT_FLOAT"}}}, {"name": "StatefulPartitionedCall/model/tf_op_layer_BroadcastTo/BroadcastTo/input", "op": "Const", "input": ["^image_input"], "attr": {"dtype": {"type": "DT_FLOAT"}, "value": {"tensor": {"dtype": "DT_FLOAT", "tensorShape": {"dim": [{"size": "1"}, {"size": "1"}, {"size": "3"}]}}}}}, {"name": "StatefulPartitionedCall/model/tf_op_layer_Mul/Mul/y", "op": "Const", "input": ["^image_input"], "attr": {"value": {"tensor": {"dtype": "DT_FLOAT", "tensorShape": {}}}, "dtype": {"type": "DT_FLOAT"}}}, {"name": "StatefulPartitionedCall/model/stack_0/block_0/se_reshape/Reshape/shape/3", "op": "Const", "input": ["^image_input"], "attr": {"value": {"tensor": {"dtype": "DT_INT32", "tensorShape": {}}}, "dtype": {"type": "DT_INT32"}}}, {"name": "Func/StatefulPartitionedCall/input/_12", "op": "Const", "input": ["^image_input"], "attr": {"value": {"tensor": {"dtype": "DT_FLOAT", "tensorShape": {"dim": [{"size": "1"}, {"size": "1"}, {"size": "32"}, {"size": "8"}]}}}, "dtype": {"type": "DT_FLOAT"}}}, {"name": "Func/StatefulPartitionedCall/input/_13", "op": "Const", "input": ["^image_input"], "attr": {"value": {"tensor": {"dtype": "DT_FLOAT", "tensorShape": {"dim": [{"size": "8"}]}}}, "dtype": {"type": "DT_FLOAT"}}}, {"name": "Func/StatefulPartitionedCall/input/_14", "op": "Const", "input": ["^image_input"], "attr": {"dtype": {"type": "DT_FLOAT"}, "value": {"tensor": {"dtype": "DT_FLOAT", "tensorShape": {"dim": [{"size": "1"}, {"size": "1"}, {"size": "8"}, {"size": "32"}]}}}}}, {"name": "Func/StatefulPartitionedCall/input/_15", "op": "Const", "input": ["^image_input"], "attr": {"dtype": {"type": "DT_FLOAT"}, "value": {"tensor": {"dtype": "DT_FLOAT", "tensorShape": {"dim": [{"size": "32"}]}}}}}, {"name": "StatefulPartitionedCall/model/stack_1/block_0/se_reshape/Reshape/shape/3", "op": "Const", "input": ["^image_input"], "attr": {"value": {"tensor": {"dtype": "DT_INT32", "tensorShape": {}}}, "dtype": {"type": "DT_INT32"}}}, {"name": "Func/StatefulPartitionedCall/input/_31", "op": "Const", "input": ["^image_input"], "attr": {"dtype": {"type": "DT_FLOAT"}, "value": {"tensor": {"dtype": "DT_FLOAT", "tensorShape": {"dim": [{"size": "1"}, {"size": "1"}, {"size": "96"}, {"size": "4"}]}}}}}, {"name": "Func/StatefulPartitionedCall/input/_32", "op": "Const", "input": ["^image_input"], "attr": {"dtype": {"type": "DT_FLOAT"}, "value": {"tensor": {"dtype": "DT_FLOAT", "tensorShape": {"dim": [{"size": "4"}]}}}}}, {"name": "Func/StatefulPartitionedCall/input/_33", "op": "Const", "input": ["^image_input"], "attr": {"dtype": {"type": "DT_FLOAT"}, "value": {"tensor": {"dtype": "DT_FLOAT", "tensorShape": {"dim": [{"size": "1"}, {"size": "1"}, {"size": "4"}, {"size": "96"}]}}}}}, {"name": "Func/StatefulPartitionedCall/input/_34", "op": "Const", "input": ["^image_input"], "attr": {"value": {"tensor": {"dtype": "DT_FLOAT", "tensorShape": {"dim": [{"size": "96"}]}}}, "dtype": {"type": "DT_FLOAT"}}}, {"name": "Func/StatefulPartitionedCall/input/_50", "op": "Const", "input": ["^image_input"], "attr": {"dtype": {"type": "DT_FLOAT"}, "value": {"tensor": {"dtype": "DT_FLOAT", "tensorShape": {"dim": [{"size": "1"}, {"size": "1"}, {"size": "144"}, {"size": "6"}]}}}}}, {"name": "Func/StatefulPartitionedCall/input/_51", "op": "Const", "input": ["^image_input"], "attr": {"value": {"tensor": {"dtype": "DT_FLOAT", "tensorShape": {"dim": [{"size": "6"}]}}}, "dtype": {"type": "DT_FLOAT"}}}, {"name": "Func/StatefulPartitionedCall/input/_52", "op": "Const", "input": ["^image_input"], "attr": {"dtype": {"type": "DT_FLOAT"}, "value": {"tensor": {"dtype": "DT_FLOAT", "tensorShape": {"dim": [{"size": "1"}, {"size": "1"}, {"size": "6"}, {"size": "144"}]}}}}}, {"name": "Func/StatefulPartitionedCall/input/_53", "op": "Const", "input": ["^image_input"], "attr": {"dtype": {"type": "DT_FLOAT"}, "value": {"tensor": {"dtype": "DT_FLOAT", "tensorShape": {"dim": [{"size": "144"}]}}}}}, {"name": "StatefulPartitionedCall/model/stack_1/block_1/se_reshape/Reshape/shape/3", "op": "Const", "input": ["^image_input"], "attr": {"value": {"tensor": {"dtype": "DT_INT32", "tensorShape": {}}}, "dtype": {"type": "DT_INT32"}}}, {"name": "Func/StatefulPartitionedCall/input/_69", "op": "Const", "input": ["^image_input"], "attr": {"value": {"tensor": {"dtype": "DT_FLOAT", "tensorShape": {"dim": [{"size": "1"}, {"size": "1"}, {"size": "144"}, {"size": "6"}]}}}, "dtype": {"type": "DT_FLOAT"}}}, {"name": "Func/StatefulPartitionedCall/input/_70", "op": "Const", "input": ["^image_input"], "attr": {"value": {"tensor": {"dtype": "DT_FLOAT", "tensorShape": {"dim": [{"size": "6"}]}}}, "dtype": {"type": "DT_FLOAT"}}}, {"name": "Func/StatefulPartitionedCall/input/_71", "op": "Const", "input": ["^image_input"], "attr": {"dtype": {"type": "DT_FLOAT"}, "value": {"tensor": {"dtype": "DT_FLOAT", "tensorShape": {"dim": [{"size": "1"}, {"size": "1"}, {"size": "6"}, {"size": "144"}]}}}}}, {"name": "Func/StatefulPartitionedCall/input/_72", "op": "Const", "input": ["^image_input"], "attr": {"value": {"tensor": {"dtype": "DT_FLOAT", "tensorShape": {"dim": [{"size": "144"}]}}}, "dtype": {"type": "DT_FLOAT"}}}, {"name": "Func/StatefulPartitionedCall/input/_88", "op": "Const", "input": ["^image_input"], "attr": {"value": {"tensor": {"dtype": "DT_FLOAT", "tensorShape": {"dim": [{"size": "1"}, {"size": "1"}, {"size": "240"}, {"size": "10"}]}}}, "dtype": {"type": "DT_FLOAT"}}}, {"name": "Func/StatefulPartitionedCall/input/_89", "op": "Const", "input": ["^image_input"], "attr": {"value": {"tensor": {"dtype": "DT_FLOAT", "tensorShape": {"dim": [{"size": "10"}]}}}, "dtype": {"type": "DT_FLOAT"}}}, {"name": "Func/StatefulPartitionedCall/input/_90", "op": "Const", "input": ["^image_input"], "attr": {"dtype": {"type": "DT_FLOAT"}, "value": {"tensor": {"dtype": "DT_FLOAT", "tensorShape": {"dim": [{"size": "1"}, {"size": "1"}, {"size": "10"}, {"size": "240"}]}}}}}, {"name": "Func/StatefulPartitionedCall/input/_91", "op": "Const", "input": ["^image_input"], "attr": {"dtype": {"type": "DT_FLOAT"}, "value": {"tensor": {"dtype": "DT_FLOAT", "tensorShape": {"dim": [{"size": "240"}]}}}}}, {"name": "StatefulPartitionedCall/model/stack_2/block_1/se_reshape/Reshape/shape/3", "op": "Const", "input": ["^image_input"], "attr": {"dtype": {"type": "DT_INT32"}, "value": {"tensor": {"dtype": "DT_INT32", "tensorShape": {}}}}}, {"name": "Func/StatefulPartitionedCall/input/_107", "op": "Const", "input": ["^image_input"], "attr": {"dtype": {"type": "DT_FLOAT"}, "value": {"tensor": {"dtype": "DT_FLOAT", "tensorShape": {"dim": [{"size": "1"}, {"size": "1"}, {"size": "240"}, {"size": "10"}]}}}}}, {"name": "Func/StatefulPartitionedCall/input/_108", "op": "Const", "input": ["^image_input"], "attr": {"dtype": {"type": "DT_FLOAT"}, "value": {"tensor": {"dtype": "DT_FLOAT", "tensorShape": {"dim": [{"size": "10"}]}}}}}, {"name": "Func/StatefulPartitionedCall/input/_109", "op": "Const", "input": ["^image_input"], "attr": {"value": {"tensor": {"dtype": "DT_FLOAT", "tensorShape": {"dim": [{"size": "1"}, {"size": "1"}, {"size": "10"}, {"size": "240"}]}}}, "dtype": {"type": "DT_FLOAT"}}}, {"name": "Func/StatefulPartitionedCall/input/_110", "op": "Const", "input": ["^image_input"], "attr": {"dtype": {"type": "DT_FLOAT"}, "value": {"tensor": {"dtype": "DT_FLOAT", "tensorShape": {"dim": [{"size": "240"}]}}}}}, {"name": "Func/StatefulPartitionedCall/input/_126", "op": "Const", "input": ["^image_input"], "attr": {"dtype": {"type": "DT_FLOAT"}, "value": {"tensor": {"dtype": "DT_FLOAT", "tensorShape": {"dim": [{"size": "1"}, {"size": "1"}, {"size": "480"}, {"size": "20"}]}}}}}, {"name": "Func/StatefulPartitionedCall/input/_127", "op": "Const", "input": ["^image_input"], "attr": {"dtype": {"type": "DT_FLOAT"}, "value": {"tensor": {"dtype": "DT_FLOAT", "tensorShape": {"dim": [{"size": "20"}]}}}}}, {"name": "Func/StatefulPartitionedCall/input/_128", "op": "Const", "input": ["^image_input"], "attr": {"value": {"tensor": {"dtype": "DT_FLOAT", "tensorShape": {"dim": [{"size": "1"}, {"size": "1"}, {"size": "20"}, {"size": "480"}]}}}, "dtype": {"type": "DT_FLOAT"}}}, {"name": "Func/StatefulPartitionedCall/input/_129", "op": "Const", "input": ["^image_input"], "attr": {"value": {"tensor": {"dtype": "DT_FLOAT", "tensorShape": {"dim": [{"size": "480"}]}}}, "dtype": {"type": "DT_FLOAT"}}}, {"name": "Func/StatefulPartitionedCall/input/_145", "op": "Const", "input": ["^image_input"], "attr": {"value": {"tensor": {"dtype": "DT_FLOAT", "tensorShape": {"dim": [{"size": "1"}, {"size": "1"}, {"size": "480"}, {"size": "20"}]}}}, "dtype": {"type": "DT_FLOAT"}}}, {"name": "Func/StatefulPartitionedCall/input/_146", "op": "Const", "input": ["^image_input"], "attr": {"value": {"tensor": {"dtype": "DT_FLOAT", "tensorShape": {"dim": [{"size": "20"}]}}}, "dtype": {"type": "DT_FLOAT"}}}, {"name": "Func/StatefulPartitionedCall/input/_147", "op": "Const", "input": ["^image_input"], "attr": {"value": {"tensor": {"dtype": "DT_FLOAT", "tensorShape": {"dim": [{"size": "1"}, {"size": "1"}, {"size": "20"}, {"size": "480"}]}}}, "dtype": {"type": "DT_FLOAT"}}}, {"name": "Func/StatefulPartitionedCall/input/_148", "op": "Const", "input": ["^image_input"], "attr": {"value": {"tensor": {"dtype": "DT_FLOAT", "tensorShape": {"dim": [{"size": "480"}]}}}, "dtype": {"type": "DT_FLOAT"}}}, {"name": "StatefulPartitionedCall/model/stack_3/block_2/se_reshape/Reshape/shape/3", "op": "Const", "input": ["^image_input"], "attr": {"value": {"tensor": {"dtype": "DT_INT32", "tensorShape": {}}}, "dtype": {"type": "DT_INT32"}}}, {"name": "Func/StatefulPartitionedCall/input/_164", "op": "Const", "input": ["^image_input"], "attr": {"dtype": {"type": "DT_FLOAT"}, "value": {"tensor": {"dtype": "DT_FLOAT", "tensorShape": {"dim": [{"size": "1"}, {"size": "1"}, {"size": "480"}, {"size": "20"}]}}}}}, {"name": "Func/StatefulPartitionedCall/input/_165", "op": "Const", "input": ["^image_input"], "attr": {"value": {"tensor": {"dtype": "DT_FLOAT", "tensorShape": {"dim": [{"size": "20"}]}}}, "dtype": {"type": "DT_FLOAT"}}}, {"name": "Func/StatefulPartitionedCall/input/_166", "op": "Const", "input": ["^image_input"], "attr": {"value": {"tensor": {"dtype": "DT_FLOAT", "tensorShape": {"dim": [{"size": "1"}, {"size": "1"}, {"size": "20"}, {"size": "480"}]}}}, "dtype": {"type": "DT_FLOAT"}}}, {"name": "Func/StatefulPartitionedCall/input/_167", "op": "Const", "input": ["^image_input"], "attr": {"value": {"tensor": {"dtype": "DT_FLOAT", "tensorShape": {"dim": [{"size": "480"}]}}}, "dtype": {"type": "DT_FLOAT"}}}, {"name": "Func/StatefulPartitionedCall/input/_183", "op": "Const", "input": ["^image_input"], "attr": {"dtype": {"type": "DT_FLOAT"}, "value": {"tensor": {"dtype": "DT_FLOAT", "tensorShape": {"dim": [{"size": "1"}, {"size": "1"}, {"size": "672"}, {"size": "28"}]}}}}}, {"name": "Func/StatefulPartitionedCall/input/_184", "op": "Const", "input": ["^image_input"], "attr": {"value": {"tensor": {"dtype": "DT_FLOAT", "tensorShape": {"dim": [{"size": "28"}]}}}, "dtype": {"type": "DT_FLOAT"}}}, {"name": "Func/StatefulPartitionedCall/input/_185", "op": "Const", "input": ["^image_input"], "attr": {"value": {"tensor": {"dtype": "DT_FLOAT", "tensorShape": {"dim": [{"size": "1"}, {"size": "1"}, {"size": "28"}, {"size": "672"}]}}}, "dtype": {"type": "DT_FLOAT"}}}, {"name": "Func/StatefulPartitionedCall/input/_186", "op": "Const", "input": ["^image_input"], "attr": {"dtype": {"type": "DT_FLOAT"}, "value": {"tensor": {"dtype": "DT_FLOAT", "tensorShape": {"dim": [{"size": "672"}]}}}}}, {"name": "Func/StatefulPartitionedCall/input/_202", "op": "Const", "input": ["^image_input"], "attr": {"value": {"tensor": {"dtype": "DT_FLOAT", "tensorShape": {"dim": [{"size": "1"}, {"size": "1"}, {"size": "672"}, {"size": "28"}]}}}, "dtype": {"type": "DT_FLOAT"}}}, {"name": "Func/StatefulPartitionedCall/input/_203", "op": "Const", "input": ["^image_input"], "attr": {"dtype": {"type": "DT_FLOAT"}, "value": {"tensor": {"dtype": "DT_FLOAT", "tensorShape": {"dim": [{"size": "28"}]}}}}}, {"name": "Func/StatefulPartitionedCall/input/_204", "op": "Const", "input": ["^image_input"], "attr": {"dtype": {"type": "DT_FLOAT"}, "value": {"tensor": {"dtype": "DT_FLOAT", "tensorShape": {"dim": [{"size": "1"}, {"size": "1"}, {"size": "28"}, {"size": "672"}]}}}}}, {"name": "Func/StatefulPartitionedCall/input/_205", "op": "Const", "input": ["^image_input"], "attr": {"dtype": {"type": "DT_FLOAT"}, "value": {"tensor": {"dtype": "DT_FLOAT", "tensorShape": {"dim": [{"size": "672"}]}}}}}, {"name": "StatefulPartitionedCall/model/stack_4/block_2/se_reshape/Reshape/shape/3", "op": "Const", "input": ["^image_input"], "attr": {"dtype": {"type": "DT_INT32"}, "value": {"tensor": {"dtype": "DT_INT32", "tensorShape": {}}}}}, {"name": "Func/StatefulPartitionedCall/input/_221", "op": "Const", "input": ["^image_input"], "attr": {"dtype": {"type": "DT_FLOAT"}, "value": {"tensor": {"dtype": "DT_FLOAT", "tensorShape": {"dim": [{"size": "1"}, {"size": "1"}, {"size": "672"}, {"size": "28"}]}}}}}, {"name": "Func/StatefulPartitionedCall/input/_222", "op": "Const", "input": ["^image_input"], "attr": {"dtype": {"type": "DT_FLOAT"}, "value": {"tensor": {"dtype": "DT_FLOAT", "tensorShape": {"dim": [{"size": "28"}]}}}}}, {"name": "Func/StatefulPartitionedCall/input/_223", "op": "Const", "input": ["^image_input"], "attr": {"dtype": {"type": "DT_FLOAT"}, "value": {"tensor": {"dtype": "DT_FLOAT", "tensorShape": {"dim": [{"size": "1"}, {"size": "1"}, {"size": "28"}, {"size": "672"}]}}}}}, {"name": "Func/StatefulPartitionedCall/input/_224", "op": "Const", "input": ["^image_input"], "attr": {"value": {"tensor": {"dtype": "DT_FLOAT", "tensorShape": {"dim": [{"size": "672"}]}}}, "dtype": {"type": "DT_FLOAT"}}}, {"name": "Func/StatefulPartitionedCall/input/_240", "op": "Const", "input": ["^image_input"], "attr": {"dtype": {"type": "DT_FLOAT"}, "value": {"tensor": {"dtype": "DT_FLOAT", "tensorShape": {"dim": [{"size": "1"}, {"size": "1"}, {"size": "1152"}, {"size": "48"}]}}}}}, {"name": "Func/StatefulPartitionedCall/input/_241", "op": "Const", "input": ["^image_input"], "attr": {"dtype": {"type": "DT_FLOAT"}, "value": {"tensor": {"dtype": "DT_FLOAT", "tensorShape": {"dim": [{"size": "48"}]}}}}}, {"name": "Func/StatefulPartitionedCall/input/_242", "op": "Const", "input": ["^image_input"], "attr": {"value": {"tensor": {"dtype": "DT_FLOAT", "tensorShape": {"dim": [{"size": "1"}, {"size": "1"}, {"size": "48"}, {"size": "1152"}]}}}, "dtype": {"type": "DT_FLOAT"}}}, {"name": "Func/StatefulPartitionedCall/input/_243", "op": "Const", "input": ["^image_input"], "attr": {"value": {"tensor": {"dtype": "DT_FLOAT", "tensorShape": {"dim": [{"size": "1152"}]}}}, "dtype": {"type": "DT_FLOAT"}}}, {"name": "Func/StatefulPartitionedCall/input/_259", "op": "Const", "input": ["^image_input"], "attr": {"value": {"tensor": {"dtype": "DT_FLOAT", "tensorShape": {"dim": [{"size": "1"}, {"size": "1"}, {"size": "1152"}, {"size": "48"}]}}}, "dtype": {"type": "DT_FLOAT"}}}, {"name": "Func/StatefulPartitionedCall/input/_260", "op": "Const", "input": ["^image_input"], "attr": {"dtype": {"type": "DT_FLOAT"}, "value": {"tensor": {"dtype": "DT_FLOAT", "tensorShape": {"dim": [{"size": "48"}]}}}}}, {"name": "Func/StatefulPartitionedCall/input/_261", "op": "Const", "input": ["^image_input"], "attr": {"value": {"tensor": {"dtype": "DT_FLOAT", "tensorShape": {"dim": [{"size": "1"}, {"size": "1"}, {"size": "48"}, {"size": "1152"}]}}}, "dtype": {"type": "DT_FLOAT"}}}, {"name": "Func/StatefulPartitionedCall/input/_262", "op": "Const", "input": ["^image_input"], "attr": {"value": {"tensor": {"dtype": "DT_FLOAT", "tensorShape": {"dim": [{"size": "1152"}]}}}, "dtype": {"type": "DT_FLOAT"}}}, {"name": "Func/StatefulPartitionedCall/input/_278", "op": "Const", "input": ["^image_input"], "attr": {"dtype": {"type": "DT_FLOAT"}, "value": {"tensor": {"dtype": "DT_FLOAT", "tensorShape": {"dim": [{"size": "1"}, {"size": "1"}, {"size": "1152"}, {"size": "48"}]}}}}}, {"name": "Func/StatefulPartitionedCall/input/_279", "op": "Const", "input": ["^image_input"], "attr": {"dtype": {"type": "DT_FLOAT"}, "value": {"tensor": {"dtype": "DT_FLOAT", "tensorShape": {"dim": [{"size": "48"}]}}}}}, {"name": "Func/StatefulPartitionedCall/input/_280", "op": "Const", "input": ["^image_input"], "attr": {"dtype": {"type": "DT_FLOAT"}, "value": {"tensor": {"dtype": "DT_FLOAT", "tensorShape": {"dim": [{"size": "1"}, {"size": "1"}, {"size": "48"}, {"size": "1152"}]}}}}}, {"name": "Func/StatefulPartitionedCall/input/_281", "op": "Const", "input": ["^image_input"], "attr": {"dtype": {"type": "DT_FLOAT"}, "value": {"tensor": {"dtype": "DT_FLOAT", "tensorShape": {"dim": [{"size": "1152"}]}}}}}, {"name": "StatefulPartitionedCall/model/stack_5/block_3/se_reshape/strided_slice/stack", "op": "Const", "input": ["^image_input"], "attr": {"dtype": {"type": "DT_INT32"}, "value": {"tensor": {"dtype": "DT_INT32", "tensorShape": {"dim": [{"size": "1"}]}}}}}, {"name": "StatefulPartitionedCall/model/stack_5/block_3/se_reshape/strided_slice/stack_1", "op": "Const", "input": ["^image_input"], "attr": {"value": {"tensor": {"dtype": "DT_INT32", "tensorShape": {"dim": [{"size": "1"}]}}}, "dtype": {"type": "DT_INT32"}}}, {"name": "StatefulPartitionedCall/model/stack_5/block_3/se_reshape/Reshape/shape/1", "op": "Const", "input": ["^image_input"], "attr": {"value": {"tensor": {"dtype": "DT_INT32", "tensorShape": {}}}, "dtype": {"type": "DT_INT32"}}}, {"name": "StatefulPartitionedCall/model/stack_5/block_3/se_reshape/Reshape/shape/3", "op": "Const", "input": ["^image_input"], "attr": {"dtype": {"type": "DT_INT32"}, "value": {"tensor": {"dtype": "DT_INT32", "tensorShape": {}}}}}, {"name": "Func/StatefulPartitionedCall/input/_297", "op": "Const", "input": ["^image_input"], "attr": {"dtype": {"type": "DT_FLOAT"}, "value": {"tensor": {"dtype": "DT_FLOAT", "tensorShape": {"dim": [{"size": "1"}, {"size": "1"}, {"size": "1152"}, {"size": "48"}]}}}}}, {"name": "Func/StatefulPartitionedCall/input/_298", "op": "Const", "input": ["^image_input"], "attr": {"dtype": {"type": "DT_FLOAT"}, "value": {"tensor": {"dtype": "DT_FLOAT", "tensorShape": {"dim": [{"size": "48"}]}}}}}, {"name": "Func/StatefulPartitionedCall/input/_299", "op": "Const", "input": ["^image_input"], "attr": {"dtype": {"type": "DT_FLOAT"}, "value": {"tensor": {"dtype": "DT_FLOAT", "tensorShape": {"dim": [{"size": "1"}, {"size": "1"}, {"size": "48"}, {"size": "1152"}]}}}}}, {"name": "Func/StatefulPartitionedCall/input/_300", "op": "Const", "input": ["^image_input"], "attr": {"value": {"tensor": {"dtype": "DT_FLOAT", "tensorShape": {"dim": [{"size": "1152"}]}}}, "dtype": {"type": "DT_FLOAT"}}}, {"name": "StatefulPartitionedCall/model/stack_5/block_3/se_squeeze/Mean/reduction_indices", "op": "Const", "input": ["^image_input"], "attr": {"dtype": {"type": "DT_INT32"}, "value": {"tensor": {"dtype": "DT_INT32", "tensorShape": {"dim": [{"size": "2"}]}}}}}, {"name": "Func/StatefulPartitionedCall/input/_311", "op": "Const", "input": ["^image_input"], "attr": {"dtype": {"type": "DT_FLOAT"}, "value": {"tensor": {"dtype": "DT_FLOAT", "tensorShape": {"dim": [{"size": "1280"}, {"size": "1000"}]}}}}}, {"name": "Func/StatefulPartitionedCall/input/_312", "op": "Const", "input": ["^image_input"], "attr": {"value": {"tensor": {"dtype": "DT_FLOAT", "tensorShape": {"dim": [{"size": "1000"}]}}}, "dtype": {"type": "DT_FLOAT"}}}, {"name": "StatefulPartitionedCall/model/tf_op_layer_Mul/Mul", "op": "Mul", "input": ["StatefulPartitionedCall/model/tf_op_layer_Mul/Mul/y", "image_input"], "attr": {"_cloned": {"b": true}, "T": {"type": "DT_FLOAT"}}}, {"name": "StatefulPartitionedCall/model/tf_op_layer_Shape/Shape", "op": "Shape", "input": ["StatefulPartitionedCall/model/tf_op_layer_Mul/Mul"], "attr": {"out_type": {"type": "DT_INT32"}, "_cloned": {"b": true}, "T": {"type": "DT_FLOAT"}}}, {"name": "StatefulPartitionedCall/model/tf_op_layer_BroadcastTo/BroadcastTo", "op": "BroadcastTo", "input": ["StatefulPartitionedCall/model/tf_op_layer_BroadcastTo/BroadcastTo/input", "StatefulPartitionedCall/model/tf_op_layer_Shape/Shape"], "attr": {"Tidx": {"type": "DT_INT32"}, "T": {"type": "DT_FLOAT"}, "_cloned": {"b": true}}}, {"name": "StatefulPartitionedCall/model/tf_op_layer_Sub/Sub", "op": "Sub", "input": ["StatefulPartitionedCall/model/tf_op_layer_Mul/Mul", "StatefulPartitionedCall/model/tf_op_layer_BroadcastTo/BroadcastTo"], "attr": {"T": {"type": "DT_FLOAT"}, "_cloned": {"b": true}}}, {"name": "StatefulPartitionedCall/model/tf_op_layer_Shape_1/Shape_1", "op": "Shape", "input": ["StatefulPartitionedCall/model/tf_op_layer_Sub/Sub"], "attr": {"out_type": {"type": "DT_INT32"}, "_cloned": {"b": true}, "T": {"type": "DT_FLOAT"}}}, {"name": "StatefulPartitionedCall/model/tf_op_layer_BroadcastTo_1/BroadcastTo_1", "op": "BroadcastTo", "input": ["StatefulPartitionedCall/model/tf_op_layer_BroadcastTo_1/BroadcastTo_1/input", "StatefulPartitionedCall/model/tf_op_layer_Shape_1/Shape_1"], "attr": {"_cloned": {"b": true}, "Tidx": {"type": "DT_INT32"}, "T": {"type": "DT_FLOAT"}}}, {"name": "StatefulPartitionedCall/model/tf_op_layer_RealDiv/RealDiv", "op": "RealDiv", "input": ["StatefulPartitionedCall/model/tf_op_layer_Sub/Sub", "StatefulPartitionedCall/model/tf_op_layer_BroadcastTo_1/BroadcastTo_1"], "attr": {"T": {"type": "DT_FLOAT"}, "_cloned": {"b": true}}}, {"name": "StatefulPartitionedCall/model/stem_bn/FusedBatchNormV3", "op": "_FusedConv2D", "input": ["StatefulPartitionedCall/model/tf_op_layer_RealDiv/RealDiv", "StatefulPartitionedCall/model/stem_conv2d/Conv2D_weights", "StatefulPartitionedCall/model/stem_conv2d/Conv2D_bn_offset"], "device": "/device:CPU:0", "attr": {"use_cudnn_on_gpu": {"b": true}, "dilations": {"list": {"i": ["1", "1", "1", "1"]}}, "data_format": {"s": "TkhXQw=="}, "fused_ops": {"list": {"s": ["Qmlhc0FkZA=="]}}, "epsilon": {"f": 0.0}, "explicit_paddings": {"list": {}}, "strides": {"list": {"i": ["1", "2", "2", "1"]}}, "T": {"type": "DT_FLOAT"}, "num_args": {"i": "1"}, "padding": {"s": "U0FNRQ=="}}}, {"name": "StatefulPartitionedCall/model/stem_activation/Sigmoid", "op": "Sigmoid", "input": ["StatefulPartitionedCall/model/stem_bn/FusedBatchNormV3"], "attr": {"T": {"type": "DT_FLOAT"}}}, {"name": "StatefulPartitionedCall/model/stem_activation/mul", "op": "Mul", "input": ["StatefulPartitionedCall/model/stem_activation/Sigmoid", "StatefulPartitionedCall/model/stem_bn/FusedBatchNormV3"], "attr": {"T": {"type": "DT_FLOAT"}}}, {"name": "StatefulPartitionedCall/model/stack_0/block_0/depthwise_conv2d/depthwise", "op": "FusedDepthwiseConv2dNative", "input": ["StatefulPartitionedCall/model/stem_activation/mul", "StatefulPartitionedCall/model/stack_0/block_0/depthwise_conv2d/depthwise_weights", "StatefulPartitionedCall/model/stack_0/block_0/depthwise_conv2d/depthwise_bn_offset"], "attr": {"dilations": {"list": {"i": ["1", "1", "1", "1"]}}, "strides": {"list": {"i": ["1", "1", "1", "1"]}}, "data_format": {"s": "TkhXQw=="}, "num_args": {"i": "1"}, "padding": {"s": "U0FNRQ=="}, "T": {"type": "DT_FLOAT"}, "fused_ops": {"list": {"s": ["Qmlhc0FkZA=="]}}}}, {"name": "StatefulPartitionedCall/model/stack_0/block_0/depthwise_activation/Sigmoid", "op": "Sigmoid", "input": ["StatefulPartitionedCall/model/stack_0/block_0/depthwise_conv2d/depthwise"], "attr": {"T": {"type": "DT_FLOAT"}}}, {"name": "StatefulPartitionedCall/model/stack_0/block_0/depthwise_activation/mul", "op": "Mul", "input": ["StatefulPartitionedCall/model/stack_0/block_0/depthwise_activation/Sigmoid", "StatefulPartitionedCall/model/stack_0/block_0/depthwise_conv2d/depthwise"], "attr": {"T": {"type": "DT_FLOAT"}}}, {"name": "StatefulPartitionedCall/model/stack_0/block_0/se_squeeze/Mean", "op": "Mean", "input": ["StatefulPartitionedCall/model/stack_0/block_0/depthwise_activation/mul", "StatefulPartitionedCall/model/stack_5/block_3/se_squeeze/Mean/reduction_indices"], "attr": {"T": {"type": "DT_FLOAT"}, "keep_dims": {"b": false}, "Tidx": {"type": "DT_INT32"}}}, {"name": "StatefulPartitionedCall/model/stack_0/block_0/se_reshape/Shape", "op": "Shape", "input": ["StatefulPartitionedCall/model/stack_0/block_0/se_squeeze/Mean"], "attr": {"T": {"type": "DT_FLOAT"}, "out_type": {"type": "DT_INT32"}}}, {"name": "StatefulPartitionedCall/model/stack_0/block_0/se_reshape/strided_slice", "op": "StridedSlice", "input": ["StatefulPartitionedCall/model/stack_0/block_0/se_reshape/Shape", "StatefulPartitionedCall/model/stack_5/block_3/se_reshape/strided_slice/stack", "StatefulPartitionedCall/model/stack_5/block_3/se_reshape/strided_slice/stack_1", "StatefulPartitionedCall/model/stack_5/block_3/se_reshape/strided_slice/stack_1"], "attr": {"begin_mask": {"i": "0"}, "new_axis_mask": {"i": "0"}, "Index": {"type": "DT_INT32"}, "T": {"type": "DT_INT32"}, "end_mask": {"i": "0"}, "ellipsis_mask": {"i": "0"}, "shrink_axis_mask": {"i": "1"}}}, {"name": "StatefulPartitionedCall/model/stack_0/block_0/se_reshape/Reshape/shape", "op": "Pack", "input": ["StatefulPartitionedCall/model/stack_0/block_0/se_reshape/strided_slice", "StatefulPartitionedCall/model/stack_5/block_3/se_reshape/Reshape/shape/1", "StatefulPartitionedCall/model/stack_5/block_3/se_reshape/Reshape/shape/1", "StatefulPartitionedCall/model/stack_0/block_0/se_reshape/Reshape/shape/3"], "attr": {"T": {"type": "DT_INT32"}, "N": {"i": "4"}, "axis": {"i": "0"}}}, {"name": "StatefulPartitionedCall/model/stack_0/block_0/se_reshape/Reshape", "op": "Reshape", "input": ["StatefulPartitionedCall/model/stack_0/block_0/se_squeeze/Mean", "StatefulPartitionedCall/model/stack_0/block_0/se_reshape/Reshape/shape"], "attr": {"T": {"type": "DT_FLOAT"}, "Tshape": {"type": "DT_INT32"}}}, {"name": "StatefulPartitionedCall/model/stack_0/block_0/se_reduce_conv2d/BiasAdd", "op": "_FusedConv2D", "input": ["StatefulPartitionedCall/model/stack_0/block_0/se_reshape/Reshape", "Func/StatefulPartitionedCall/input/_12", "Func/StatefulPartitionedCall/input/_13"], "device": "/device:CPU:0", "attr": {"strides": {"list": {"i": ["1", "1", "1", "1"]}}, "explicit_paddings": {"list": {}}, "num_args": {"i": "1"}, "fused_ops": {"list": {"s": ["Qmlhc0FkZA=="]}}, "data_format": {"s": "TkhXQw=="}, "padding": {"s": "U0FNRQ=="}, "epsilon": {"f": 0.0}, "T": {"type": "DT_FLOAT"}, "use_cudnn_on_gpu": {"b": true}, "dilations": {"list": {"i": ["1", "1", "1", "1"]}}}}, {"name": "StatefulPartitionedCall/model/stack_0/block_0/se_reduce_activation/Sigmoid", "op": "Sigmoid", "input": ["StatefulPartitionedCall/model/stack_0/block_0/se_reduce_conv2d/BiasAdd"], "attr": {"T": {"type": "DT_FLOAT"}}}, {"name": "StatefulPartitionedCall/model/stack_0/block_0/se_reduce_activation/mul", "op": "Mul", "input": ["StatefulPartitionedCall/model/stack_0/block_0/se_reduce_activation/Sigmoid", "StatefulPartitionedCall/model/stack_0/block_0/se_reduce_conv2d/BiasAdd"], "attr": {"T": {"type": "DT_FLOAT"}}}, {"name": "StatefulPartitionedCall/model/stack_0/block_0/se_expand_conv2d/BiasAdd", "op": "_FusedConv2D", "input": ["StatefulPartitionedCall/model/stack_0/block_0/se_reduce_activation/mul", "Func/StatefulPartitionedCall/input/_14", "Func/StatefulPartitionedCall/input/_15"], "device": "/device:CPU:0", "attr": {"epsilon": {"f": 0.0}, "strides": {"list": {"i": ["1", "1", "1", "1"]}}, "data_format": {"s": "TkhXQw=="}, "padding": {"s": "U0FNRQ=="}, "explicit_paddings": {"list": {}}, "num_args": {"i": "1"}, "use_cudnn_on_gpu": {"b": true}, "dilations": {"list": {"i": ["1", "1", "1", "1"]}}, "T": {"type": "DT_FLOAT"}, "fused_ops": {"list": {"s": ["Qmlhc0FkZA=="]}}}}, {"name": "StatefulPartitionedCall/model/stack_0/block_0/se_expand_activation/Sigmoid", "op": "Sigmoid", "input": ["StatefulPartitionedCall/model/stack_0/block_0/se_expand_conv2d/BiasAdd"], "attr": {"T": {"type": "DT_FLOAT"}}}, {"name": "StatefulPartitionedCall/model/stack_0/block_0/se_excite/mul", "op": "Mul", "input": ["StatefulPartitionedCall/model/stack_0/block_0/depthwise_activation/mul", "StatefulPartitionedCall/model/stack_0/block_0/se_expand_activation/Sigmoid"], "attr": {"T": {"type": "DT_FLOAT"}}}, {"name": "StatefulPartitionedCall/model/stack_0/block_0/project_bn/FusedBatchNormV3", "op": "_FusedConv2D", "input": ["StatefulPartitionedCall/model/stack_0/block_0/se_excite/mul", "StatefulPartitionedCall/model/stack_0/block_0/project_conv2d/Conv2D_weights", "StatefulPartitionedCall/model/stack_0/block_0/project_conv2d/Conv2D_bn_offset"], "device": "/device:CPU:0", "attr": {"strides": {"list": {"i": ["1", "1", "1", "1"]}}, "num_args": {"i": "1"}, "use_cudnn_on_gpu": {"b": true}, "dilations": {"list": {"i": ["1", "1", "1", "1"]}}, "T": {"type": "DT_FLOAT"}, "fused_ops": {"list": {"s": ["Qmlhc0FkZA=="]}}, "data_format": {"s": "TkhXQw=="}, "epsilon": {"f": 0.0}, "padding": {"s": "U0FNRQ=="}, "explicit_paddings": {"list": {}}}}, {"name": "StatefulPartitionedCall/model/stack_1/block_0/expand_bn/FusedBatchNormV3", "op": "_FusedConv2D", "input": ["StatefulPartitionedCall/model/stack_0/block_0/project_bn/FusedBatchNormV3", "StatefulPartitionedCall/model/stack_1/block_0/expand_conv2d/Conv2D_weights", "StatefulPartitionedCall/model/stack_1/block_0/expand_conv2d/Conv2D_bn_offset"], "device": "/device:CPU:0", "attr": {"strides": {"list": {"i": ["1", "1", "1", "1"]}}, "data_format": {"s": "TkhXQw=="}, "use_cudnn_on_gpu": {"b": true}, "padding": {"s": "U0FNRQ=="}, "dilations": {"list": {"i": ["1", "1", "1", "1"]}}, "T": {"type": "DT_FLOAT"}, "epsilon": {"f": 0.0}, "num_args": {"i": "1"}, "fused_ops": {"list": {"s": ["Qmlhc0FkZA=="]}}, "explicit_paddings": {"list": {}}}}, {"name": "StatefulPartitionedCall/model/stack_1/block_0/expand_activation/Sigmoid", "op": "Sigmoid", "input": ["StatefulPartitionedCall/model/stack_1/block_0/expand_bn/FusedBatchNormV3"], "attr": {"T": {"type": "DT_FLOAT"}}}, {"name": "StatefulPartitionedCall/model/stack_1/block_0/expand_activation/mul", "op": "Mul", "input": ["StatefulPartitionedCall/model/stack_1/block_0/expand_activation/Sigmoid", "StatefulPartitionedCall/model/stack_1/block_0/expand_bn/FusedBatchNormV3"], "attr": {"T": {"type": "DT_FLOAT"}}}, {"name": "StatefulPartitionedCall/model/stack_1/block_0/depthwise_conv2d/depthwise", "op": "FusedDepthwiseConv2dNative", "input": ["StatefulPartitionedCall/model/stack_1/block_0/expand_activation/mul", "StatefulPartitionedCall/model/stack_1/block_0/depthwise_conv2d/depthwise_weights", "StatefulPartitionedCall/model/stack_1/block_0/depthwise_conv2d/depthwise_bn_offset"], "attr": {"strides": {"list": {"i": ["1", "2", "2", "1"]}}, "fused_ops": {"list": {"s": ["Qmlhc0FkZA=="]}}, "T": {"type": "DT_FLOAT"}, "data_format": {"s": "TkhXQw=="}, "num_args": {"i": "1"}, "dilations": {"list": {"i": ["1", "1", "1", "1"]}}, "padding": {"s": "U0FNRQ=="}}}, {"name": "StatefulPartitionedCall/model/stack_1/block_0/depthwise_activation/Sigmoid", "op": "Sigmoid", "input": ["StatefulPartitionedCall/model/stack_1/block_0/depthwise_conv2d/depthwise"], "attr": {"T": {"type": "DT_FLOAT"}}}, {"name": "StatefulPartitionedCall/model/stack_1/block_0/depthwise_activation/mul", "op": "Mul", "input": ["StatefulPartitionedCall/model/stack_1/block_0/depthwise_activation/Sigmoid", "StatefulPartitionedCall/model/stack_1/block_0/depthwise_conv2d/depthwise"], "attr": {"T": {"type": "DT_FLOAT"}}}, {"name": "StatefulPartitionedCall/model/stack_1/block_0/se_squeeze/Mean", "op": "Mean", "input": ["StatefulPartitionedCall/model/stack_1/block_0/depthwise_activation/mul", "StatefulPartitionedCall/model/stack_5/block_3/se_squeeze/Mean/reduction_indices"], "attr": {"T": {"type": "DT_FLOAT"}, "Tidx": {"type": "DT_INT32"}, "keep_dims": {"b": false}}}, {"name": "StatefulPartitionedCall/model/stack_1/block_0/se_reshape/Shape", "op": "Shape", "input": ["StatefulPartitionedCall/model/stack_1/block_0/se_squeeze/Mean"], "attr": {"T": {"type": "DT_FLOAT"}, "out_type": {"type": "DT_INT32"}}}, {"name": "StatefulPartitionedCall/model/stack_1/block_0/se_reshape/strided_slice", "op": "StridedSlice", "input": ["StatefulPartitionedCall/model/stack_1/block_0/se_reshape/Shape", "StatefulPartitionedCall/model/stack_5/block_3/se_reshape/strided_slice/stack", "StatefulPartitionedCall/model/stack_5/block_3/se_reshape/strided_slice/stack_1", "StatefulPartitionedCall/model/stack_5/block_3/se_reshape/strided_slice/stack_1"], "attr": {"begin_mask": {"i": "0"}, "end_mask": {"i": "0"}, "T": {"type": "DT_INT32"}, "new_axis_mask": {"i": "0"}, "Index": {"type": "DT_INT32"}, "shrink_axis_mask": {"i": "1"}, "ellipsis_mask": {"i": "0"}}}, {"name": "StatefulPartitionedCall/model/stack_1/block_0/se_reshape/Reshape/shape", "op": "Pack", "input": ["StatefulPartitionedCall/model/stack_1/block_0/se_reshape/strided_slice", "StatefulPartitionedCall/model/stack_5/block_3/se_reshape/Reshape/shape/1", "StatefulPartitionedCall/model/stack_5/block_3/se_reshape/Reshape/shape/1", "StatefulPartitionedCall/model/stack_1/block_0/se_reshape/Reshape/shape/3"], "attr": {"T": {"type": "DT_INT32"}, "axis": {"i": "0"}, "N": {"i": "4"}}}, {"name": "StatefulPartitionedCall/model/stack_1/block_0/se_reshape/Reshape", "op": "Reshape", "input": ["StatefulPartitionedCall/model/stack_1/block_0/se_squeeze/Mean", "StatefulPartitionedCall/model/stack_1/block_0/se_reshape/Reshape/shape"], "attr": {"T": {"type": "DT_FLOAT"}, "Tshape": {"type": "DT_INT32"}}}, {"name": "StatefulPartitionedCall/model/stack_1/block_0/se_reduce_conv2d/BiasAdd", "op": "_FusedConv2D", "input": ["StatefulPartitionedCall/model/stack_1/block_0/se_reshape/Reshape", "Func/StatefulPartitionedCall/input/_31", "Func/StatefulPartitionedCall/input/_32"], "device": "/device:CPU:0", "attr": {"use_cudnn_on_gpu": {"b": true}, "T": {"type": "DT_FLOAT"}, "epsilon": {"f": 0.0}, "dilations": {"list": {"i": ["1", "1", "1", "1"]}}, "fused_ops": {"list": {"s": ["Qmlhc0FkZA=="]}}, "num_args": {"i": "1"}, "strides": {"list": {"i": ["1", "1", "1", "1"]}}, "explicit_paddings": {"list": {}}, "data_format": {"s": "TkhXQw=="}, "padding": {"s": "U0FNRQ=="}}}, {"name": "StatefulPartitionedCall/model/stack_1/block_0/se_reduce_activation/Sigmoid", "op": "Sigmoid", "input": ["StatefulPartitionedCall/model/stack_1/block_0/se_reduce_conv2d/BiasAdd"], "attr": {"T": {"type": "DT_FLOAT"}}}, {"name": "StatefulPartitionedCall/model/stack_1/block_0/se_reduce_activation/mul", "op": "Mul", "input": ["StatefulPartitionedCall/model/stack_1/block_0/se_reduce_activation/Sigmoid", "StatefulPartitionedCall/model/stack_1/block_0/se_reduce_conv2d/BiasAdd"], "attr": {"T": {"type": "DT_FLOAT"}}}, {"name": "StatefulPartitionedCall/model/stack_1/block_0/se_expand_conv2d/BiasAdd", "op": "_FusedConv2D", "input": ["StatefulPartitionedCall/model/stack_1/block_0/se_reduce_activation/mul", "Func/StatefulPartitionedCall/input/_33", "Func/StatefulPartitionedCall/input/_34"], "device": "/device:CPU:0", "attr": {"data_format": {"s": "TkhXQw=="}, "T": {"type": "DT_FLOAT"}, "num_args": {"i": "1"}, "explicit_paddings": {"list": {}}, "padding": {"s": "U0FNRQ=="}, "epsilon": {"f": 0.0}, "strides": {"list": {"i": ["1", "1", "1", "1"]}}, "use_cudnn_on_gpu": {"b": true}, "fused_ops": {"list": {"s": ["Qmlhc0FkZA=="]}}, "dilations": {"list": {"i": ["1", "1", "1", "1"]}}}}, {"name": "StatefulPartitionedCall/model/stack_1/block_0/se_expand_activation/Sigmoid", "op": "Sigmoid", "input": ["StatefulPartitionedCall/model/stack_1/block_0/se_expand_conv2d/BiasAdd"], "attr": {"T": {"type": "DT_FLOAT"}}}, {"name": "StatefulPartitionedCall/model/stack_1/block_0/se_excite/mul", "op": "Mul", "input": ["StatefulPartitionedCall/model/stack_1/block_0/depthwise_activation/mul", "StatefulPartitionedCall/model/stack_1/block_0/se_expand_activation/Sigmoid"], "attr": {"T": {"type": "DT_FLOAT"}}}, {"name": "StatefulPartitionedCall/model/stack_1/block_0/project_bn/FusedBatchNormV3", "op": "_FusedConv2D", "input": ["StatefulPartitionedCall/model/stack_1/block_0/se_excite/mul", "StatefulPartitionedCall/model/stack_1/block_0/project_conv2d/Conv2D_weights", "StatefulPartitionedCall/model/stack_1/block_0/project_conv2d/Conv2D_bn_offset"], "device": "/device:CPU:0", "attr": {"epsilon": {"f": 0.0}, "strides": {"list": {"i": ["1", "1", "1", "1"]}}, "num_args": {"i": "1"}, "use_cudnn_on_gpu": {"b": true}, "explicit_paddings": {"list": {}}, "dilations": {"list": {"i": ["1", "1", "1", "1"]}}, "T": {"type": "DT_FLOAT"}, "data_format": {"s": "TkhXQw=="}, "padding": {"s": "U0FNRQ=="}, "fused_ops": {"list": {"s": ["Qmlhc0FkZA=="]}}}}, {"name": "StatefulPartitionedCall/model/stack_1/block_1/expand_bn/FusedBatchNormV3", "op": "_FusedConv2D", "input": ["StatefulPartitionedCall/model/stack_1/block_0/project_bn/FusedBatchNormV3", "StatefulPartitionedCall/model/stack_1/block_1/expand_conv2d/Conv2D_weights", "StatefulPartitionedCall/model/stack_1/block_1/expand_conv2d/Conv2D_bn_offset"], "device": "/device:CPU:0", "attr": {"fused_ops": {"list": {"s": ["Qmlhc0FkZA=="]}}, "dilations": {"list": {"i": ["1", "1", "1", "1"]}}, "num_args": {"i": "1"}, "T": {"type": "DT_FLOAT"}, "use_cudnn_on_gpu": {"b": true}, "epsilon": {"f": 0.0}, "data_format": {"s": "TkhXQw=="}, "strides": {"list": {"i": ["1", "1", "1", "1"]}}, "explicit_paddings": {"list": {}}, "padding": {"s": "U0FNRQ=="}}}, {"name": "StatefulPartitionedCall/model/stack_1/block_1/expand_activation/Sigmoid", "op": "Sigmoid", "input": ["StatefulPartitionedCall/model/stack_1/block_1/expand_bn/FusedBatchNormV3"], "attr": {"T": {"type": "DT_FLOAT"}}}, {"name": "StatefulPartitionedCall/model/stack_1/block_1/expand_activation/mul", "op": "Mul", "input": ["StatefulPartitionedCall/model/stack_1/block_1/expand_activation/Sigmoid", "StatefulPartitionedCall/model/stack_1/block_1/expand_bn/FusedBatchNormV3"], "attr": {"T": {"type": "DT_FLOAT"}}}, {"name": "StatefulPartitionedCall/model/stack_1/block_1/depthwise_conv2d/depthwise", "op": "FusedDepthwiseConv2dNative", "input": ["StatefulPartitionedCall/model/stack_1/block_1/expand_activation/mul", "StatefulPartitionedCall/model/stack_1/block_1/depthwise_conv2d/depthwise_weights", "StatefulPartitionedCall/model/stack_1/block_1/depthwise_conv2d/depthwise_bn_offset"], "attr": {"data_format": {"s": "TkhXQw=="}, "fused_ops": {"list": {"s": ["Qmlhc0FkZA=="]}}, "T": {"type": "DT_FLOAT"}, "padding": {"s": "U0FNRQ=="}, "dilations": {"list": {"i": ["1", "1", "1", "1"]}}, "strides": {"list": {"i": ["1", "1", "1", "1"]}}, "num_args": {"i": "1"}}}, {"name": "StatefulPartitionedCall/model/stack_1/block_1/depthwise_activation/Sigmoid", "op": "Sigmoid", "input": ["StatefulPartitionedCall/model/stack_1/block_1/depthwise_conv2d/depthwise"], "attr": {"T": {"type": "DT_FLOAT"}}}, {"name": "StatefulPartitionedCall/model/stack_1/block_1/depthwise_activation/mul", "op": "Mul", "input": ["StatefulPartitionedCall/model/stack_1/block_1/depthwise_activation/Sigmoid", "StatefulPartitionedCall/model/stack_1/block_1/depthwise_conv2d/depthwise"], "attr": {"T": {"type": "DT_FLOAT"}}}, {"name": "StatefulPartitionedCall/model/stack_1/block_1/se_squeeze/Mean", "op": "Mean", "input": ["StatefulPartitionedCall/model/stack_1/block_1/depthwise_activation/mul", "StatefulPartitionedCall/model/stack_5/block_3/se_squeeze/Mean/reduction_indices"], "attr": {"T": {"type": "DT_FLOAT"}, "Tidx": {"type": "DT_INT32"}, "keep_dims": {"b": false}}}, {"name": "StatefulPartitionedCall/model/stack_1/block_1/se_reshape/Shape", "op": "Shape", "input": ["StatefulPartitionedCall/model/stack_1/block_1/se_squeeze/Mean"], "attr": {"T": {"type": "DT_FLOAT"}, "out_type": {"type": "DT_INT32"}}}, {"name": "StatefulPartitionedCall/model/stack_1/block_1/se_reshape/strided_slice", "op": "StridedSlice", "input": ["StatefulPartitionedCall/model/stack_1/block_1/se_reshape/Shape", "StatefulPartitionedCall/model/stack_5/block_3/se_reshape/strided_slice/stack", "StatefulPartitionedCall/model/stack_5/block_3/se_reshape/strided_slice/stack_1", "StatefulPartitionedCall/model/stack_5/block_3/se_reshape/strided_slice/stack_1"], "attr": {"begin_mask": {"i": "0"}, "end_mask": {"i": "0"}, "T": {"type": "DT_INT32"}, "Index": {"type": "DT_INT32"}, "new_axis_mask": {"i": "0"}, "shrink_axis_mask": {"i": "1"}, "ellipsis_mask": {"i": "0"}}}, {"name": "StatefulPartitionedCall/model/stack_1/block_1/se_reshape/Reshape/shape", "op": "Pack", "input": ["StatefulPartitionedCall/model/stack_1/block_1/se_reshape/strided_slice", "StatefulPartitionedCall/model/stack_5/block_3/se_reshape/Reshape/shape/1", "StatefulPartitionedCall/model/stack_5/block_3/se_reshape/Reshape/shape/1", "StatefulPartitionedCall/model/stack_1/block_1/se_reshape/Reshape/shape/3"], "attr": {"N": {"i": "4"}, "T": {"type": "DT_INT32"}, "axis": {"i": "0"}}}, {"name": "StatefulPartitionedCall/model/stack_1/block_1/se_reshape/Reshape", "op": "Reshape", "input": ["StatefulPartitionedCall/model/stack_1/block_1/se_squeeze/Mean", "StatefulPartitionedCall/model/stack_1/block_1/se_reshape/Reshape/shape"], "attr": {"Tshape": {"type": "DT_INT32"}, "T": {"type": "DT_FLOAT"}}}, {"name": "StatefulPartitionedCall/model/stack_1/block_1/se_reduce_conv2d/BiasAdd", "op": "_FusedConv2D", "input": ["StatefulPartitionedCall/model/stack_1/block_1/se_reshape/Reshape", "Func/StatefulPartitionedCall/input/_50", "Func/StatefulPartitionedCall/input/_51"], "device": "/device:CPU:0", "attr": {"T": {"type": "DT_FLOAT"}, "fused_ops": {"list": {"s": ["Qmlhc0FkZA=="]}}, "padding": {"s": "U0FNRQ=="}, "epsilon": {"f": 0.0}, "strides": {"list": {"i": ["1", "1", "1", "1"]}}, "dilations": {"list": {"i": ["1", "1", "1", "1"]}}, "num_args": {"i": "1"}, "use_cudnn_on_gpu": {"b": true}, "data_format": {"s": "TkhXQw=="}, "explicit_paddings": {"list": {}}}}, {"name": "StatefulPartitionedCall/model/stack_1/block_1/se_reduce_activation/Sigmoid", "op": "Sigmoid", "input": ["StatefulPartitionedCall/model/stack_1/block_1/se_reduce_conv2d/BiasAdd"], "attr": {"T": {"type": "DT_FLOAT"}}}, {"name": "StatefulPartitionedCall/model/stack_1/block_1/se_reduce_activation/mul", "op": "Mul", "input": ["StatefulPartitionedCall/model/stack_1/block_1/se_reduce_activation/Sigmoid", "StatefulPartitionedCall/model/stack_1/block_1/se_reduce_conv2d/BiasAdd"], "attr": {"T": {"type": "DT_FLOAT"}}}, {"name": "StatefulPartitionedCall/model/stack_1/block_1/se_expand_conv2d/BiasAdd", "op": "_FusedConv2D", "input": ["StatefulPartitionedCall/model/stack_1/block_1/se_reduce_activation/mul", "Func/StatefulPartitionedCall/input/_52", "Func/StatefulPartitionedCall/input/_53"], "device": "/device:CPU:0", "attr": {"strides": {"list": {"i": ["1", "1", "1", "1"]}}, "use_cudnn_on_gpu": {"b": true}, "epsilon": {"f": 0.0}, "explicit_paddings": {"list": {}}, "padding": {"s": "U0FNRQ=="}, "num_args": {"i": "1"}, "dilations": {"list": {"i": ["1", "1", "1", "1"]}}, "fused_ops": {"list": {"s": ["Qmlhc0FkZA=="]}}, "T": {"type": "DT_FLOAT"}, "data_format": {"s": "TkhXQw=="}}}, {"name": "StatefulPartitionedCall/model/stack_1/block_1/se_expand_activation/Sigmoid", "op": "Sigmoid", "input": ["StatefulPartitionedCall/model/stack_1/block_1/se_expand_conv2d/BiasAdd"], "attr": {"T": {"type": "DT_FLOAT"}}}, {"name": "StatefulPartitionedCall/model/stack_1/block_1/se_excite/mul", "op": "Mul", "input": ["StatefulPartitionedCall/model/stack_1/block_1/depthwise_activation/mul", "StatefulPartitionedCall/model/stack_1/block_1/se_expand_activation/Sigmoid"], "attr": {"T": {"type": "DT_FLOAT"}}}, {"name": "StatefulPartitionedCall/model/stack_1/block_1/project_bn/FusedBatchNormV3", "op": "_FusedConv2D", "input": ["StatefulPartitionedCall/model/stack_1/block_1/se_excite/mul", "StatefulPartitionedCall/model/stack_1/block_1/project_conv2d/Conv2D_weights", "StatefulPartitionedCall/model/stack_1/block_1/project_conv2d/Conv2D_bn_offset"], "device": "/device:CPU:0", "attr": {"padding": {"s": "U0FNRQ=="}, "num_args": {"i": "1"}, "fused_ops": {"list": {"s": ["Qmlhc0FkZA=="]}}, "epsilon": {"f": 0.0}, "use_cudnn_on_gpu": {"b": true}, "T": {"type": "DT_FLOAT"}, "data_format": {"s": "TkhXQw=="}, "strides": {"list": {"i": ["1", "1", "1", "1"]}}, "dilations": {"list": {"i": ["1", "1", "1", "1"]}}, "explicit_paddings": {"list": {}}}}, {"name": "StatefulPartitionedCall/model/stack_1/block_1/add/add", "op": "AddV2", "input": ["StatefulPartitionedCall/model/stack_1/block_0/project_bn/FusedBatchNormV3", "StatefulPartitionedCall/model/stack_1/block_1/project_bn/FusedBatchNormV3"], "attr": {"T": {"type": "DT_FLOAT"}}}, {"name": "StatefulPartitionedCall/model/stack_2/block_0/expand_bn/FusedBatchNormV3", "op": "_FusedConv2D", "input": ["StatefulPartitionedCall/model/stack_1/block_1/add/add", "StatefulPartitionedCall/model/stack_2/block_0/expand_conv2d/Conv2D_weights", "StatefulPartitionedCall/model/stack_2/block_0/expand_conv2d/Conv2D_bn_offset"], "device": "/device:CPU:0", "attr": {"fused_ops": {"list": {"s": ["Qmlhc0FkZA=="]}}, "num_args": {"i": "1"}, "dilations": {"list": {"i": ["1", "1", "1", "1"]}}, "strides": {"list": {"i": ["1", "1", "1", "1"]}}, "epsilon": {"f": 0.0}, "padding": {"s": "U0FNRQ=="}, "explicit_paddings": {"list": {}}, "use_cudnn_on_gpu": {"b": true}, "T": {"type": "DT_FLOAT"}, "data_format": {"s": "TkhXQw=="}}}, {"name": "StatefulPartitionedCall/model/stack_2/block_0/expand_activation/Sigmoid", "op": "Sigmoid", "input": ["StatefulPartitionedCall/model/stack_2/block_0/expand_bn/FusedBatchNormV3"], "attr": {"T": {"type": "DT_FLOAT"}}}, {"name": "StatefulPartitionedCall/model/stack_2/block_0/expand_activation/mul", "op": "Mul", "input": ["StatefulPartitionedCall/model/stack_2/block_0/expand_activation/Sigmoid", "StatefulPartitionedCall/model/stack_2/block_0/expand_bn/FusedBatchNormV3"], "attr": {"T": {"type": "DT_FLOAT"}}}, {"name": "StatefulPartitionedCall/model/stack_2/block_0/depthwise_conv2d/depthwise", "op": "FusedDepthwiseConv2dNative", "input": ["StatefulPartitionedCall/model/stack_2/block_0/expand_activation/mul", "StatefulPartitionedCall/model/stack_2/block_0/depthwise_conv2d/depthwise_weights", "StatefulPartitionedCall/model/stack_2/block_0/depthwise_conv2d/depthwise_bn_offset"], "attr": {"dilations": {"list": {"i": ["1", "1", "1", "1"]}}, "padding": {"s": "U0FNRQ=="}, "T": {"type": "DT_FLOAT"}, "data_format": {"s": "TkhXQw=="}, "strides": {"list": {"i": ["1", "2", "2", "1"]}}, "fused_ops": {"list": {"s": ["Qmlhc0FkZA=="]}}, "num_args": {"i": "1"}}}, {"name": "StatefulPartitionedCall/model/stack_2/block_0/depthwise_activation/Sigmoid", "op": "Sigmoid", "input": ["StatefulPartitionedCall/model/stack_2/block_0/depthwise_conv2d/depthwise"], "attr": {"T": {"type": "DT_FLOAT"}}}, {"name": "StatefulPartitionedCall/model/stack_2/block_0/depthwise_activation/mul", "op": "Mul", "input": ["StatefulPartitionedCall/model/stack_2/block_0/depthwise_activation/Sigmoid", "StatefulPartitionedCall/model/stack_2/block_0/depthwise_conv2d/depthwise"], "attr": {"T": {"type": "DT_FLOAT"}}}, {"name": "StatefulPartitionedCall/model/stack_2/block_0/se_squeeze/Mean", "op": "Mean", "input": ["StatefulPartitionedCall/model/stack_2/block_0/depthwise_activation/mul", "StatefulPartitionedCall/model/stack_5/block_3/se_squeeze/Mean/reduction_indices"], "attr": {"T": {"type": "DT_FLOAT"}, "keep_dims": {"b": false}, "Tidx": {"type": "DT_INT32"}}}, {"name": "StatefulPartitionedCall/model/stack_2/block_0/se_reshape/Shape", "op": "Shape", "input": ["StatefulPartitionedCall/model/stack_2/block_0/se_squeeze/Mean"], "attr": {"T": {"type": "DT_FLOAT"}, "out_type": {"type": "DT_INT32"}}}, {"name": "StatefulPartitionedCall/model/stack_2/block_0/se_reshape/strided_slice", "op": "StridedSlice", "input": ["StatefulPartitionedCall/model/stack_2/block_0/se_reshape/Shape", "StatefulPartitionedCall/model/stack_5/block_3/se_reshape/strided_slice/stack", "StatefulPartitionedCall/model/stack_5/block_3/se_reshape/strided_slice/stack_1", "StatefulPartitionedCall/model/stack_5/block_3/se_reshape/strided_slice/stack_1"], "attr": {"shrink_axis_mask": {"i": "1"}, "begin_mask": {"i": "0"}, "new_axis_mask": {"i": "0"}, "T": {"type": "DT_INT32"}, "ellipsis_mask": {"i": "0"}, "end_mask": {"i": "0"}, "Index": {"type": "DT_INT32"}}}, {"name": "StatefulPartitionedCall/model/stack_2/block_0/se_reshape/Reshape/shape", "op": "Pack", "input": ["StatefulPartitionedCall/model/stack_2/block_0/se_reshape/strided_slice", "StatefulPartitionedCall/model/stack_5/block_3/se_reshape/Reshape/shape/1", "StatefulPartitionedCall/model/stack_5/block_3/se_reshape/Reshape/shape/1", "StatefulPartitionedCall/model/stack_1/block_1/se_reshape/Reshape/shape/3"], "attr": {"T": {"type": "DT_INT32"}, "N": {"i": "4"}, "axis": {"i": "0"}}}, {"name": "StatefulPartitionedCall/model/stack_2/block_0/se_reshape/Reshape", "op": "Reshape", "input": ["StatefulPartitionedCall/model/stack_2/block_0/se_squeeze/Mean", "StatefulPartitionedCall/model/stack_2/block_0/se_reshape/Reshape/shape"], "attr": {"T": {"type": "DT_FLOAT"}, "Tshape": {"type": "DT_INT32"}}}, {"name": "StatefulPartitionedCall/model/stack_2/block_0/se_reduce_conv2d/BiasAdd", "op": "_FusedConv2D", "input": ["StatefulPartitionedCall/model/stack_2/block_0/se_reshape/Reshape", "Func/StatefulPartitionedCall/input/_69", "Func/StatefulPartitionedCall/input/_70"], "device": "/device:CPU:0", "attr": {"use_cudnn_on_gpu": {"b": true}, "padding": {"s": "U0FNRQ=="}, "epsilon": {"f": 0.0}, "strides": {"list": {"i": ["1", "1", "1", "1"]}}, "dilations": {"list": {"i": ["1", "1", "1", "1"]}}, "data_format": {"s": "TkhXQw=="}, "fused_ops": {"list": {"s": ["Qmlhc0FkZA=="]}}, "num_args": {"i": "1"}, "explicit_paddings": {"list": {}}, "T": {"type": "DT_FLOAT"}}}, {"name": "StatefulPartitionedCall/model/stack_2/block_0/se_reduce_activation/Sigmoid", "op": "Sigmoid", "input": ["StatefulPartitionedCall/model/stack_2/block_0/se_reduce_conv2d/BiasAdd"], "attr": {"T": {"type": "DT_FLOAT"}}}, {"name": "StatefulPartitionedCall/model/stack_2/block_0/se_reduce_activation/mul", "op": "Mul", "input": ["StatefulPartitionedCall/model/stack_2/block_0/se_reduce_activation/Sigmoid", "StatefulPartitionedCall/model/stack_2/block_0/se_reduce_conv2d/BiasAdd"], "attr": {"T": {"type": "DT_FLOAT"}}}, {"name": "StatefulPartitionedCall/model/stack_2/block_0/se_expand_conv2d/BiasAdd", "op": "_FusedConv2D", "input": ["StatefulPartitionedCall/model/stack_2/block_0/se_reduce_activation/mul", "Func/StatefulPartitionedCall/input/_71", "Func/StatefulPartitionedCall/input/_72"], "device": "/device:CPU:0", "attr": {"T": {"type": "DT_FLOAT"}, "data_format": {"s": "TkhXQw=="}, "padding": {"s": "U0FNRQ=="}, "fused_ops": {"list": {"s": ["Qmlhc0FkZA=="]}}, "num_args": {"i": "1"}, "explicit_paddings": {"list": {}}, "strides": {"list": {"i": ["1", "1", "1", "1"]}}, "dilations": {"list": {"i": ["1", "1", "1", "1"]}}, "epsilon": {"f": 0.0}, "use_cudnn_on_gpu": {"b": true}}}, {"name": "StatefulPartitionedCall/model/stack_2/block_0/se_expand_activation/Sigmoid", "op": "Sigmoid", "input": ["StatefulPartitionedCall/model/stack_2/block_0/se_expand_conv2d/BiasAdd"], "attr": {"T": {"type": "DT_FLOAT"}}}, {"name": "StatefulPartitionedCall/model/stack_2/block_0/se_excite/mul", "op": "Mul", "input": ["StatefulPartitionedCall/model/stack_2/block_0/depthwise_activation/mul", "StatefulPartitionedCall/model/stack_2/block_0/se_expand_activation/Sigmoid"], "attr": {"T": {"type": "DT_FLOAT"}}}, {"name": "StatefulPartitionedCall/model/stack_2/block_0/project_bn/FusedBatchNormV3", "op": "_FusedConv2D", "input": ["StatefulPartitionedCall/model/stack_2/block_0/se_excite/mul", "StatefulPartitionedCall/model/stack_2/block_0/project_conv2d/Conv2D_weights", "StatefulPartitionedCall/model/stack_2/block_0/project_conv2d/Conv2D_bn_offset"], "device": "/device:CPU:0", "attr": {"strides": {"list": {"i": ["1", "1", "1", "1"]}}, "explicit_paddings": {"list": {}}, "fused_ops": {"list": {"s": ["Qmlhc0FkZA=="]}}, "use_cudnn_on_gpu": {"b": true}, "epsilon": {"f": 0.0}, "data_format": {"s": "TkhXQw=="}, "T": {"type": "DT_FLOAT"}, "num_args": {"i": "1"}, "dilations": {"list": {"i": ["1", "1", "1", "1"]}}, "padding": {"s": "U0FNRQ=="}}}, {"name": "StatefulPartitionedCall/model/stack_2/block_1/expand_bn/FusedBatchNormV3", "op": "_FusedConv2D", "input": ["StatefulPartitionedCall/model/stack_2/block_0/project_bn/FusedBatchNormV3", "StatefulPartitionedCall/model/stack_2/block_1/expand_conv2d/Conv2D_weights", "StatefulPartitionedCall/model/stack_2/block_1/expand_conv2d/Conv2D_bn_offset"], "device": "/device:CPU:0", "attr": {"use_cudnn_on_gpu": {"b": true}, "num_args": {"i": "1"}, "dilations": {"list": {"i": ["1", "1", "1", "1"]}}, "padding": {"s": "U0FNRQ=="}, "fused_ops": {"list": {"s": ["Qmlhc0FkZA=="]}}, "T": {"type": "DT_FLOAT"}, "data_format": {"s": "TkhXQw=="}, "strides": {"list": {"i": ["1", "1", "1", "1"]}}, "epsilon": {"f": 0.0}, "explicit_paddings": {"list": {}}}}, {"name": "StatefulPartitionedCall/model/stack_2/block_1/expand_activation/Sigmoid", "op": "Sigmoid", "input": ["StatefulPartitionedCall/model/stack_2/block_1/expand_bn/FusedBatchNormV3"], "attr": {"T": {"type": "DT_FLOAT"}}}, {"name": "StatefulPartitionedCall/model/stack_2/block_1/expand_activation/mul", "op": "Mul", "input": ["StatefulPartitionedCall/model/stack_2/block_1/expand_activation/Sigmoid", "StatefulPartitionedCall/model/stack_2/block_1/expand_bn/FusedBatchNormV3"], "attr": {"T": {"type": "DT_FLOAT"}}}, {"name": "StatefulPartitionedCall/model/stack_2/block_1/depthwise_conv2d/depthwise", "op": "FusedDepthwiseConv2dNative", "input": ["StatefulPartitionedCall/model/stack_2/block_1/expand_activation/mul", "StatefulPartitionedCall/model/stack_2/block_1/depthwise_conv2d/depthwise_weights", "StatefulPartitionedCall/model/stack_2/block_1/depthwise_conv2d/depthwise_bn_offset"], "attr": {"num_args": {"i": "1"}, "T": {"type": "DT_FLOAT"}, "dilations": {"list": {"i": ["1", "1", "1", "1"]}}, "strides": {"list": {"i": ["1", "1", "1", "1"]}}, "padding": {"s": "U0FNRQ=="}, "data_format": {"s": "TkhXQw=="}, "fused_ops": {"list": {"s": ["Qmlhc0FkZA=="]}}}}, {"name": "StatefulPartitionedCall/model/stack_2/block_1/depthwise_activation/Sigmoid", "op": "Sigmoid", "input": ["StatefulPartitionedCall/model/stack_2/block_1/depthwise_conv2d/depthwise"], "attr": {"T": {"type": "DT_FLOAT"}}}, {"name": "StatefulPartitionedCall/model/stack_2/block_1/depthwise_activation/mul", "op": "Mul", "input": ["StatefulPartitionedCall/model/stack_2/block_1/depthwise_activation/Sigmoid", "StatefulPartitionedCall/model/stack_2/block_1/depthwise_conv2d/depthwise"], "attr": {"T": {"type": "DT_FLOAT"}}}, {"name": "StatefulPartitionedCall/model/stack_2/block_1/se_squeeze/Mean", "op": "Mean", "input": ["StatefulPartitionedCall/model/stack_2/block_1/depthwise_activation/mul", "StatefulPartitionedCall/model/stack_5/block_3/se_squeeze/Mean/reduction_indices"], "attr": {"T": {"type": "DT_FLOAT"}, "keep_dims": {"b": false}, "Tidx": {"type": "DT_INT32"}}}, {"name": "StatefulPartitionedCall/model/stack_2/block_1/se_reshape/Shape", "op": "Shape", "input": ["StatefulPartitionedCall/model/stack_2/block_1/se_squeeze/Mean"], "attr": {"T": {"type": "DT_FLOAT"}, "out_type": {"type": "DT_INT32"}}}, {"name": "StatefulPartitionedCall/model/stack_2/block_1/se_reshape/strided_slice", "op": "StridedSlice", "input": ["StatefulPartitionedCall/model/stack_2/block_1/se_reshape/Shape", "StatefulPartitionedCall/model/stack_5/block_3/se_reshape/strided_slice/stack", "StatefulPartitionedCall/model/stack_5/block_3/se_reshape/strided_slice/stack_1", "StatefulPartitionedCall/model/stack_5/block_3/se_reshape/strided_slice/stack_1"], "attr": {"ellipsis_mask": {"i": "0"}, "Index": {"type": "DT_INT32"}, "T": {"type": "DT_INT32"}, "begin_mask": {"i": "0"}, "new_axis_mask": {"i": "0"}, "shrink_axis_mask": {"i": "1"}, "end_mask": {"i": "0"}}}, {"name": "StatefulPartitionedCall/model/stack_2/block_1/se_reshape/Reshape/shape", "op": "Pack", "input": ["StatefulPartitionedCall/model/stack_2/block_1/se_reshape/strided_slice", "StatefulPartitionedCall/model/stack_5/block_3/se_reshape/Reshape/shape/1", "StatefulPartitionedCall/model/stack_5/block_3/se_reshape/Reshape/shape/1", "StatefulPartitionedCall/model/stack_2/block_1/se_reshape/Reshape/shape/3"], "attr": {"axis": {"i": "0"}, "T": {"type": "DT_INT32"}, "N": {"i": "4"}}}, {"name": "StatefulPartitionedCall/model/stack_2/block_1/se_reshape/Reshape", "op": "Reshape", "input": ["StatefulPartitionedCall/model/stack_2/block_1/se_squeeze/Mean", "StatefulPartitionedCall/model/stack_2/block_1/se_reshape/Reshape/shape"], "attr": {"T": {"type": "DT_FLOAT"}, "Tshape": {"type": "DT_INT32"}}}, {"name": "StatefulPartitionedCall/model/stack_2/block_1/se_reduce_conv2d/BiasAdd", "op": "_FusedConv2D", "input": ["StatefulPartitionedCall/model/stack_2/block_1/se_reshape/Reshape", "Func/StatefulPartitionedCall/input/_88", "Func/StatefulPartitionedCall/input/_89"], "device": "/device:CPU:0", "attr": {"dilations": {"list": {"i": ["1", "1", "1", "1"]}}, "data_format": {"s": "TkhXQw=="}, "explicit_paddings": {"list": {}}, "fused_ops": {"list": {"s": ["Qmlhc0FkZA=="]}}, "T": {"type": "DT_FLOAT"}, "padding": {"s": "U0FNRQ=="}, "num_args": {"i": "1"}, "strides": {"list": {"i": ["1", "1", "1", "1"]}}, "use_cudnn_on_gpu": {"b": true}, "epsilon": {"f": 0.0}}}, {"name": "StatefulPartitionedCall/model/stack_2/block_1/se_reduce_activation/Sigmoid", "op": "Sigmoid", "input": ["StatefulPartitionedCall/model/stack_2/block_1/se_reduce_conv2d/BiasAdd"], "attr": {"T": {"type": "DT_FLOAT"}}}, {"name": "StatefulPartitionedCall/model/stack_2/block_1/se_reduce_activation/mul", "op": "Mul", "input": ["StatefulPartitionedCall/model/stack_2/block_1/se_reduce_activation/Sigmoid", "StatefulPartitionedCall/model/stack_2/block_1/se_reduce_conv2d/BiasAdd"], "attr": {"T": {"type": "DT_FLOAT"}}}, {"name": "StatefulPartitionedCall/model/stack_2/block_1/se_expand_conv2d/BiasAdd", "op": "_FusedConv2D", "input": ["StatefulPartitionedCall/model/stack_2/block_1/se_reduce_activation/mul", "Func/StatefulPartitionedCall/input/_90", "Func/StatefulPartitionedCall/input/_91"], "device": "/device:CPU:0", "attr": {"dilations": {"list": {"i": ["1", "1", "1", "1"]}}, "T": {"type": "DT_FLOAT"}, "padding": {"s": "U0FNRQ=="}, "strides": {"list": {"i": ["1", "1", "1", "1"]}}, "num_args": {"i": "1"}, "explicit_paddings": {"list": {}}, "data_format": {"s": "TkhXQw=="}, "use_cudnn_on_gpu": {"b": true}, "epsilon": {"f": 0.0}, "fused_ops": {"list": {"s": ["Qmlhc0FkZA=="]}}}}, {"name": "StatefulPartitionedCall/model/stack_2/block_1/se_expand_activation/Sigmoid", "op": "Sigmoid", "input": ["StatefulPartitionedCall/model/stack_2/block_1/se_expand_conv2d/BiasAdd"], "attr": {"T": {"type": "DT_FLOAT"}}}, {"name": "StatefulPartitionedCall/model/stack_2/block_1/se_excite/mul", "op": "Mul", "input": ["StatefulPartitionedCall/model/stack_2/block_1/depthwise_activation/mul", "StatefulPartitionedCall/model/stack_2/block_1/se_expand_activation/Sigmoid"], "attr": {"T": {"type": "DT_FLOAT"}}}, {"name": "StatefulPartitionedCall/model/stack_2/block_1/project_bn/FusedBatchNormV3", "op": "_FusedConv2D", "input": ["StatefulPartitionedCall/model/stack_2/block_1/se_excite/mul", "StatefulPartitionedCall/model/stack_2/block_1/project_conv2d/Conv2D_weights", "StatefulPartitionedCall/model/stack_2/block_1/project_conv2d/Conv2D_bn_offset"], "device": "/device:CPU:0", "attr": {"data_format": {"s": "TkhXQw=="}, "use_cudnn_on_gpu": {"b": true}, "dilations": {"list": {"i": ["1", "1", "1", "1"]}}, "epsilon": {"f": 0.0}, "fused_ops": {"list": {"s": ["Qmlhc0FkZA=="]}}, "T": {"type": "DT_FLOAT"}, "strides": {"list": {"i": ["1", "1", "1", "1"]}}, "padding": {"s": "U0FNRQ=="}, "explicit_paddings": {"list": {}}, "num_args": {"i": "1"}}}, {"name": "StatefulPartitionedCall/model/stack_2/block_1/add/add", "op": "AddV2", "input": ["StatefulPartitionedCall/model/stack_2/block_0/project_bn/FusedBatchNormV3", "StatefulPartitionedCall/model/stack_2/block_1/project_bn/FusedBatchNormV3"], "attr": {"T": {"type": "DT_FLOAT"}}}, {"name": "StatefulPartitionedCall/model/stack_3/block_0/expand_bn/FusedBatchNormV3", "op": "_FusedConv2D", "input": ["StatefulPartitionedCall/model/stack_2/block_1/add/add", "StatefulPartitionedCall/model/stack_3/block_0/expand_conv2d/Conv2D_weights", "StatefulPartitionedCall/model/stack_3/block_0/expand_conv2d/Conv2D_bn_offset"], "device": "/device:CPU:0", "attr": {"padding": {"s": "U0FNRQ=="}, "use_cudnn_on_gpu": {"b": true}, "strides": {"list": {"i": ["1", "1", "1", "1"]}}, "dilations": {"list": {"i": ["1", "1", "1", "1"]}}, "T": {"type": "DT_FLOAT"}, "num_args": {"i": "1"}, "fused_ops": {"list": {"s": ["Qmlhc0FkZA=="]}}, "data_format": {"s": "TkhXQw=="}, "epsilon": {"f": 0.0}, "explicit_paddings": {"list": {}}}}, {"name": "StatefulPartitionedCall/model/stack_3/block_0/expand_activation/Sigmoid", "op": "Sigmoid", "input": ["StatefulPartitionedCall/model/stack_3/block_0/expand_bn/FusedBatchNormV3"], "attr": {"T": {"type": "DT_FLOAT"}}}, {"name": "StatefulPartitionedCall/model/stack_3/block_0/expand_activation/mul", "op": "Mul", "input": ["StatefulPartitionedCall/model/stack_3/block_0/expand_activation/Sigmoid", "StatefulPartitionedCall/model/stack_3/block_0/expand_bn/FusedBatchNormV3"], "attr": {"T": {"type": "DT_FLOAT"}}}, {"name": "StatefulPartitionedCall/model/stack_3/block_0/depthwise_conv2d/depthwise", "op": "FusedDepthwiseConv2dNative", "input": ["StatefulPartitionedCall/model/stack_3/block_0/expand_activation/mul", "StatefulPartitionedCall/model/stack_3/block_0/depthwise_conv2d/depthwise_weights", "StatefulPartitionedCall/model/stack_3/block_0/depthwise_conv2d/depthwise_bn_offset"], "attr": {"data_format": {"s": "TkhXQw=="}, "fused_ops": {"list": {"s": ["Qmlhc0FkZA=="]}}, "num_args": {"i": "1"}, "dilations": {"list": {"i": ["1", "1", "1", "1"]}}, "T": {"type": "DT_FLOAT"}, "strides": {"list": {"i": ["1", "2", "2", "1"]}}, "padding": {"s": "U0FNRQ=="}}}, {"name": "StatefulPartitionedCall/model/stack_3/block_0/depthwise_activation/Sigmoid", "op": "Sigmoid", "input": ["StatefulPartitionedCall/model/stack_3/block_0/depthwise_conv2d/depthwise"], "attr": {"T": {"type": "DT_FLOAT"}}}, {"name": "StatefulPartitionedCall/model/stack_3/block_0/depthwise_activation/mul", "op": "Mul", "input": ["StatefulPartitionedCall/model/stack_3/block_0/depthwise_activation/Sigmoid", "StatefulPartitionedCall/model/stack_3/block_0/depthwise_conv2d/depthwise"], "attr": {"T": {"type": "DT_FLOAT"}}}, {"name": "StatefulPartitionedCall/model/stack_3/block_0/se_squeeze/Mean", "op": "Mean", "input": ["StatefulPartitionedCall/model/stack_3/block_0/depthwise_activation/mul", "StatefulPartitionedCall/model/stack_5/block_3/se_squeeze/Mean/reduction_indices"], "attr": {"Tidx": {"type": "DT_INT32"}, "keep_dims": {"b": false}, "T": {"type": "DT_FLOAT"}}}, {"name": "StatefulPartitionedCall/model/stack_3/block_0/se_reshape/Shape", "op": "Shape", "input": ["StatefulPartitionedCall/model/stack_3/block_0/se_squeeze/Mean"], "attr": {"T": {"type": "DT_FLOAT"}, "out_type": {"type": "DT_INT32"}}}, {"name": "StatefulPartitionedCall/model/stack_3/block_0/se_reshape/strided_slice", "op": "StridedSlice", "input": ["StatefulPartitionedCall/model/stack_3/block_0/se_reshape/Shape", "StatefulPartitionedCall/model/stack_5/block_3/se_reshape/strided_slice/stack", "StatefulPartitionedCall/model/stack_5/block_3/se_reshape/strided_slice/stack_1", "StatefulPartitionedCall/model/stack_5/block_3/se_reshape/strided_slice/stack_1"], "attr": {"end_mask": {"i": "0"}, "shrink_axis_mask": {"i": "1"}, "T": {"type": "DT_INT32"}, "ellipsis_mask": {"i": "0"}, "Index": {"type": "DT_INT32"}, "new_axis_mask": {"i": "0"}, "begin_mask": {"i": "0"}}}, {"name": "StatefulPartitionedCall/model/stack_3/block_0/se_reshape/Reshape/shape", "op": "Pack", "input": ["StatefulPartitionedCall/model/stack_3/block_0/se_reshape/strided_slice", "StatefulPartitionedCall/model/stack_5/block_3/se_reshape/Reshape/shape/1", "StatefulPartitionedCall/model/stack_5/block_3/se_reshape/Reshape/shape/1", "StatefulPartitionedCall/model/stack_2/block_1/se_reshape/Reshape/shape/3"], "attr": {"N": {"i": "4"}, "axis": {"i": "0"}, "T": {"type": "DT_INT32"}}}, {"name": "StatefulPartitionedCall/model/stack_3/block_0/se_reshape/Reshape", "op": "Reshape", "input": ["StatefulPartitionedCall/model/stack_3/block_0/se_squeeze/Mean", "StatefulPartitionedCall/model/stack_3/block_0/se_reshape/Reshape/shape"], "attr": {"T": {"type": "DT_FLOAT"}, "Tshape": {"type": "DT_INT32"}}}, {"name": "StatefulPartitionedCall/model/stack_3/block_0/se_reduce_conv2d/BiasAdd", "op": "_FusedConv2D", "input": ["StatefulPartitionedCall/model/stack_3/block_0/se_reshape/Reshape", "Func/StatefulPartitionedCall/input/_107", "Func/StatefulPartitionedCall/input/_108"], "device": "/device:CPU:0", "attr": {"dilations": {"list": {"i": ["1", "1", "1", "1"]}}, "strides": {"list": {"i": ["1", "1", "1", "1"]}}, "use_cudnn_on_gpu": {"b": true}, "fused_ops": {"list": {"s": ["Qmlhc0FkZA=="]}}, "T": {"type": "DT_FLOAT"}, "padding": {"s": "U0FNRQ=="}, "num_args": {"i": "1"}, "explicit_paddings": {"list": {}}, "epsilon": {"f": 0.0}, "data_format": {"s": "TkhXQw=="}}}, {"name": "StatefulPartitionedCall/model/stack_3/block_0/se_reduce_activation/Sigmoid", "op": "Sigmoid", "input": ["StatefulPartitionedCall/model/stack_3/block_0/se_reduce_conv2d/BiasAdd"], "attr": {"T": {"type": "DT_FLOAT"}}}, {"name": "StatefulPartitionedCall/model/stack_3/block_0/se_reduce_activation/mul", "op": "Mul", "input": ["StatefulPartitionedCall/model/stack_3/block_0/se_reduce_activation/Sigmoid", "StatefulPartitionedCall/model/stack_3/block_0/se_reduce_conv2d/BiasAdd"], "attr": {"T": {"type": "DT_FLOAT"}}}, {"name": "StatefulPartitionedCall/model/stack_3/block_0/se_expand_conv2d/BiasAdd", "op": "_FusedConv2D", "input": ["StatefulPartitionedCall/model/stack_3/block_0/se_reduce_activation/mul", "Func/StatefulPartitionedCall/input/_109", "Func/StatefulPartitionedCall/input/_110"], "device": "/device:CPU:0", "attr": {"num_args": {"i": "1"}, "explicit_paddings": {"list": {}}, "T": {"type": "DT_FLOAT"}, "padding": {"s": "U0FNRQ=="}, "use_cudnn_on_gpu": {"b": true}, "strides": {"list": {"i": ["1", "1", "1", "1"]}}, "epsilon": {"f": 0.0}, "data_format": {"s": "TkhXQw=="}, "dilations": {"list": {"i": ["1", "1", "1", "1"]}}, "fused_ops": {"list": {"s": ["Qmlhc0FkZA=="]}}}}, {"name": "StatefulPartitionedCall/model/stack_3/block_0/se_expand_activation/Sigmoid", "op": "Sigmoid", "input": ["StatefulPartitionedCall/model/stack_3/block_0/se_expand_conv2d/BiasAdd"], "attr": {"T": {"type": "DT_FLOAT"}}}, {"name": "StatefulPartitionedCall/model/stack_3/block_0/se_excite/mul", "op": "Mul", "input": ["StatefulPartitionedCall/model/stack_3/block_0/depthwise_activation/mul", "StatefulPartitionedCall/model/stack_3/block_0/se_expand_activation/Sigmoid"], "attr": {"T": {"type": "DT_FLOAT"}}}, {"name": "StatefulPartitionedCall/model/stack_3/block_0/project_bn/FusedBatchNormV3", "op": "_FusedConv2D", "input": ["StatefulPartitionedCall/model/stack_3/block_0/se_excite/mul", "StatefulPartitionedCall/model/stack_3/block_0/project_conv2d/Conv2D_weights", "StatefulPartitionedCall/model/stack_3/block_0/project_conv2d/Conv2D_bn_offset"], "device": "/device:CPU:0", "attr": {"T": {"type": "DT_FLOAT"}, "explicit_paddings": {"list": {}}, "padding": {"s": "U0FNRQ=="}, "strides": {"list": {"i": ["1", "1", "1", "1"]}}, "use_cudnn_on_gpu": {"b": true}, "fused_ops": {"list": {"s": ["Qmlhc0FkZA=="]}}, "num_args": {"i": "1"}, "dilations": {"list": {"i": ["1", "1", "1", "1"]}}, "data_format": {"s": "TkhXQw=="}, "epsilon": {"f": 0.0}}}, {"name": "StatefulPartitionedCall/model/stack_3/block_1/expand_bn/FusedBatchNormV3", "op": "_FusedConv2D", "input": ["StatefulPartitionedCall/model/stack_3/block_0/project_bn/FusedBatchNormV3", "StatefulPartitionedCall/model/stack_3/block_1/expand_conv2d/Conv2D_weights", "StatefulPartitionedCall/model/stack_3/block_1/expand_conv2d/Conv2D_bn_offset"], "device": "/device:CPU:0", "attr": {"explicit_paddings": {"list": {}}, "strides": {"list": {"i": ["1", "1", "1", "1"]}}, "epsilon": {"f": 0.0}, "num_args": {"i": "1"}, "data_format": {"s": "TkhXQw=="}, "dilations": {"list": {"i": ["1", "1", "1", "1"]}}, "padding": {"s": "U0FNRQ=="}, "fused_ops": {"list": {"s": ["Qmlhc0FkZA=="]}}, "T": {"type": "DT_FLOAT"}, "use_cudnn_on_gpu": {"b": true}}}, {"name": "StatefulPartitionedCall/model/stack_3/block_1/expand_activation/Sigmoid", "op": "Sigmoid", "input": ["StatefulPartitionedCall/model/stack_3/block_1/expand_bn/FusedBatchNormV3"], "attr": {"T": {"type": "DT_FLOAT"}}}, {"name": "StatefulPartitionedCall/model/stack_3/block_1/expand_activation/mul", "op": "Mul", "input": ["StatefulPartitionedCall/model/stack_3/block_1/expand_activation/Sigmoid", "StatefulPartitionedCall/model/stack_3/block_1/expand_bn/FusedBatchNormV3"], "attr": {"T": {"type": "DT_FLOAT"}}}, {"name": "StatefulPartitionedCall/model/stack_3/block_1/depthwise_conv2d/depthwise", "op": "FusedDepthwiseConv2dNative", "input": ["StatefulPartitionedCall/model/stack_3/block_1/expand_activation/mul", "StatefulPartitionedCall/model/stack_3/block_1/depthwise_conv2d/depthwise_weights", "StatefulPartitionedCall/model/stack_3/block_1/depthwise_conv2d/depthwise_bn_offset"], "attr": {"padding": {"s": "U0FNRQ=="}, "data_format": {"s": "TkhXQw=="}, "num_args": {"i": "1"}, "fused_ops": {"list": {"s": ["Qmlhc0FkZA=="]}}, "T": {"type": "DT_FLOAT"}, "strides": {"list": {"i": ["1", "1", "1", "1"]}}, "dilations": {"list": {"i": ["1", "1", "1", "1"]}}}}, {"name": "StatefulPartitionedCall/model/stack_3/block_1/depthwise_activation/Sigmoid", "op": "Sigmoid", "input": ["StatefulPartitionedCall/model/stack_3/block_1/depthwise_conv2d/depthwise"], "attr": {"T": {"type": "DT_FLOAT"}}}, {"name": "StatefulPartitionedCall/model/stack_3/block_1/depthwise_activation/mul", "op": "Mul", "input": ["StatefulPartitionedCall/model/stack_3/block_1/depthwise_activation/Sigmoid", "StatefulPartitionedCall/model/stack_3/block_1/depthwise_conv2d/depthwise"], "attr": {"T": {"type": "DT_FLOAT"}}}, {"name": "StatefulPartitionedCall/model/stack_3/block_1/se_squeeze/Mean", "op": "Mean", "input": ["StatefulPartitionedCall/model/stack_3/block_1/depthwise_activation/mul", "StatefulPartitionedCall/model/stack_5/block_3/se_squeeze/Mean/reduction_indices"], "attr": {"Tidx": {"type": "DT_INT32"}, "keep_dims": {"b": false}, "T": {"type": "DT_FLOAT"}}}, {"name": "StatefulPartitionedCall/model/stack_3/block_1/se_reshape/Shape", "op": "Shape", "input": ["StatefulPartitionedCall/model/stack_3/block_1/se_squeeze/Mean"], "attr": {"T": {"type": "DT_FLOAT"}, "out_type": {"type": "DT_INT32"}}}, {"name": "StatefulPartitionedCall/model/stack_3/block_1/se_reshape/strided_slice", "op": "StridedSlice", "input": ["StatefulPartitionedCall/model/stack_3/block_1/se_reshape/Shape", "StatefulPartitionedCall/model/stack_5/block_3/se_reshape/strided_slice/stack", "StatefulPartitionedCall/model/stack_5/block_3/se_reshape/strided_slice/stack_1", "StatefulPartitionedCall/model/stack_5/block_3/se_reshape/strided_slice/stack_1"], "attr": {"end_mask": {"i": "0"}, "Index": {"type": "DT_INT32"}, "shrink_axis_mask": {"i": "1"}, "new_axis_mask": {"i": "0"}, "T": {"type": "DT_INT32"}, "begin_mask": {"i": "0"}, "ellipsis_mask": {"i": "0"}}}, {"name": "StatefulPartitionedCall/model/stack_3/block_1/se_reshape/Reshape/shape", "op": "Pack", "input": ["StatefulPartitionedCall/model/stack_3/block_1/se_reshape/strided_slice", "StatefulPartitionedCall/model/stack_5/block_3/se_reshape/Reshape/shape/1", "StatefulPartitionedCall/model/stack_5/block_3/se_reshape/Reshape/shape/1", "StatefulPartitionedCall/model/stack_3/block_2/se_reshape/Reshape/shape/3"], "attr": {"T": {"type": "DT_INT32"}, "axis": {"i": "0"}, "N": {"i": "4"}}}, {"name": "StatefulPartitionedCall/model/stack_3/block_1/se_reshape/Reshape", "op": "Reshape", "input": ["StatefulPartitionedCall/model/stack_3/block_1/se_squeeze/Mean", "StatefulPartitionedCall/model/stack_3/block_1/se_reshape/Reshape/shape"], "attr": {"Tshape": {"type": "DT_INT32"}, "T": {"type": "DT_FLOAT"}}}, {"name": "StatefulPartitionedCall/model/stack_3/block_1/se_reduce_conv2d/BiasAdd", "op": "_FusedConv2D", "input": ["StatefulPartitionedCall/model/stack_3/block_1/se_reshape/Reshape", "Func/StatefulPartitionedCall/input/_126", "Func/StatefulPartitionedCall/input/_127"], "device": "/device:CPU:0", "attr": {"explicit_paddings": {"list": {}}, "padding": {"s": "U0FNRQ=="}, "use_cudnn_on_gpu": {"b": true}, "epsilon": {"f": 0.0}, "dilations": {"list": {"i": ["1", "1", "1", "1"]}}, "strides": {"list": {"i": ["1", "1", "1", "1"]}}, "T": {"type": "DT_FLOAT"}, "num_args": {"i": "1"}, "data_format": {"s": "TkhXQw=="}, "fused_ops": {"list": {"s": ["Qmlhc0FkZA=="]}}}}, {"name": "StatefulPartitionedCall/model/stack_3/block_1/se_reduce_activation/Sigmoid", "op": "Sigmoid", "input": ["StatefulPartitionedCall/model/stack_3/block_1/se_reduce_conv2d/BiasAdd"], "attr": {"T": {"type": "DT_FLOAT"}}}, {"name": "StatefulPartitionedCall/model/stack_3/block_1/se_reduce_activation/mul", "op": "Mul", "input": ["StatefulPartitionedCall/model/stack_3/block_1/se_reduce_activation/Sigmoid", "StatefulPartitionedCall/model/stack_3/block_1/se_reduce_conv2d/BiasAdd"], "attr": {"T": {"type": "DT_FLOAT"}}}, {"name": "StatefulPartitionedCall/model/stack_3/block_1/se_expand_conv2d/BiasAdd", "op": "_FusedConv2D", "input": ["StatefulPartitionedCall/model/stack_3/block_1/se_reduce_activation/mul", "Func/StatefulPartitionedCall/input/_128", "Func/StatefulPartitionedCall/input/_129"], "device": "/device:CPU:0", "attr": {"T": {"type": "DT_FLOAT"}, "explicit_paddings": {"list": {}}, "strides": {"list": {"i": ["1", "1", "1", "1"]}}, "fused_ops": {"list": {"s": ["Qmlhc0FkZA=="]}}, "num_args": {"i": "1"}, "dilations": {"list": {"i": ["1", "1", "1", "1"]}}, "data_format": {"s": "TkhXQw=="}, "padding": {"s": "U0FNRQ=="}, "epsilon": {"f": 0.0}, "use_cudnn_on_gpu": {"b": true}}}, {"name": "StatefulPartitionedCall/model/stack_3/block_1/se_expand_activation/Sigmoid", "op": "Sigmoid", "input": ["StatefulPartitionedCall/model/stack_3/block_1/se_expand_conv2d/BiasAdd"], "attr": {"T": {"type": "DT_FLOAT"}}}, {"name": "StatefulPartitionedCall/model/stack_3/block_1/se_excite/mul", "op": "Mul", "input": ["StatefulPartitionedCall/model/stack_3/block_1/depthwise_activation/mul", "StatefulPartitionedCall/model/stack_3/block_1/se_expand_activation/Sigmoid"], "attr": {"T": {"type": "DT_FLOAT"}}}, {"name": "StatefulPartitionedCall/model/stack_3/block_1/project_bn/FusedBatchNormV3", "op": "_FusedConv2D", "input": ["StatefulPartitionedCall/model/stack_3/block_1/se_excite/mul", "StatefulPartitionedCall/model/stack_3/block_1/project_conv2d/Conv2D_weights", "StatefulPartitionedCall/model/stack_3/block_1/project_conv2d/Conv2D_bn_offset"], "device": "/device:CPU:0", "attr": {"T": {"type": "DT_FLOAT"}, "dilations": {"list": {"i": ["1", "1", "1", "1"]}}, "num_args": {"i": "1"}, "fused_ops": {"list": {"s": ["Qmlhc0FkZA=="]}}, "use_cudnn_on_gpu": {"b": true}, "explicit_paddings": {"list": {}}, "padding": {"s": "U0FNRQ=="}, "strides": {"list": {"i": ["1", "1", "1", "1"]}}, "data_format": {"s": "TkhXQw=="}, "epsilon": {"f": 0.0}}}, {"name": "StatefulPartitionedCall/model/stack_3/block_1/add/add", "op": "AddV2", "input": ["StatefulPartitionedCall/model/stack_3/block_0/project_bn/FusedBatchNormV3", "StatefulPartitionedCall/model/stack_3/block_1/project_bn/FusedBatchNormV3"], "attr": {"T": {"type": "DT_FLOAT"}}}, {"name": "StatefulPartitionedCall/model/stack_3/block_2/expand_bn/FusedBatchNormV3", "op": "_FusedConv2D", "input": ["StatefulPartitionedCall/model/stack_3/block_1/add/add", "StatefulPartitionedCall/model/stack_3/block_2/expand_conv2d/Conv2D_weights", "StatefulPartitionedCall/model/stack_3/block_2/expand_conv2d/Conv2D_bn_offset"], "device": "/device:CPU:0", "attr": {"explicit_paddings": {"list": {}}, "data_format": {"s": "TkhXQw=="}, "strides": {"list": {"i": ["1", "1", "1", "1"]}}, "use_cudnn_on_gpu": {"b": true}, "fused_ops": {"list": {"s": ["Qmlhc0FkZA=="]}}, "num_args": {"i": "1"}, "epsilon": {"f": 0.0}, "padding": {"s": "U0FNRQ=="}, "dilations": {"list": {"i": ["1", "1", "1", "1"]}}, "T": {"type": "DT_FLOAT"}}}, {"name": "StatefulPartitionedCall/model/stack_3/block_2/expand_activation/Sigmoid", "op": "Sigmoid", "input": ["StatefulPartitionedCall/model/stack_3/block_2/expand_bn/FusedBatchNormV3"], "attr": {"T": {"type": "DT_FLOAT"}}}, {"name": "StatefulPartitionedCall/model/stack_3/block_2/expand_activation/mul", "op": "Mul", "input": ["StatefulPartitionedCall/model/stack_3/block_2/expand_activation/Sigmoid", "StatefulPartitionedCall/model/stack_3/block_2/expand_bn/FusedBatchNormV3"], "attr": {"T": {"type": "DT_FLOAT"}}}, {"name": "StatefulPartitionedCall/model/stack_3/block_2/depthwise_conv2d/depthwise", "op": "FusedDepthwiseConv2dNative", "input": ["StatefulPartitionedCall/model/stack_3/block_2/expand_activation/mul", "StatefulPartitionedCall/model/stack_3/block_2/depthwise_conv2d/depthwise_weights", "StatefulPartitionedCall/model/stack_3/block_2/depthwise_conv2d/depthwise_bn_offset"], "attr": {"strides": {"list": {"i": ["1", "1", "1", "1"]}}, "padding": {"s": "U0FNRQ=="}, "data_format": {"s": "TkhXQw=="}, "dilations": {"list": {"i": ["1", "1", "1", "1"]}}, "num_args": {"i": "1"}, "T": {"type": "DT_FLOAT"}, "fused_ops": {"list": {"s": ["Qmlhc0FkZA=="]}}}}, {"name": "StatefulPartitionedCall/model/stack_3/block_2/depthwise_activation/Sigmoid", "op": "Sigmoid", "input": ["StatefulPartitionedCall/model/stack_3/block_2/depthwise_conv2d/depthwise"], "attr": {"T": {"type": "DT_FLOAT"}}}, {"name": "StatefulPartitionedCall/model/stack_3/block_2/depthwise_activation/mul", "op": "Mul", "input": ["StatefulPartitionedCall/model/stack_3/block_2/depthwise_activation/Sigmoid", "StatefulPartitionedCall/model/stack_3/block_2/depthwise_conv2d/depthwise"], "attr": {"T": {"type": "DT_FLOAT"}}}, {"name": "StatefulPartitionedCall/model/stack_3/block_2/se_squeeze/Mean", "op": "Mean", "input": ["StatefulPartitionedCall/model/stack_3/block_2/depthwise_activation/mul", "StatefulPartitionedCall/model/stack_5/block_3/se_squeeze/Mean/reduction_indices"], "attr": {"T": {"type": "DT_FLOAT"}, "Tidx": {"type": "DT_INT32"}, "keep_dims": {"b": false}}}, {"name": "StatefulPartitionedCall/model/stack_3/block_2/se_reshape/Shape", "op": "Shape", "input": ["StatefulPartitionedCall/model/stack_3/block_2/se_squeeze/Mean"], "attr": {"out_type": {"type": "DT_INT32"}, "T": {"type": "DT_FLOAT"}}}, {"name": "StatefulPartitionedCall/model/stack_3/block_2/se_reshape/strided_slice", "op": "StridedSlice", "input": ["StatefulPartitionedCall/model/stack_3/block_2/se_reshape/Shape", "StatefulPartitionedCall/model/stack_5/block_3/se_reshape/strided_slice/stack", "StatefulPartitionedCall/model/stack_5/block_3/se_reshape/strided_slice/stack_1", "StatefulPartitionedCall/model/stack_5/block_3/se_reshape/strided_slice/stack_1"], "attr": {"begin_mask": {"i": "0"}, "shrink_axis_mask": {"i": "1"}, "T": {"type": "DT_INT32"}, "ellipsis_mask": {"i": "0"}, "new_axis_mask": {"i": "0"}, "end_mask": {"i": "0"}, "Index": {"type": "DT_INT32"}}}, {"name": "StatefulPartitionedCall/model/stack_3/block_2/se_reshape/Reshape/shape", "op": "Pack", "input": ["StatefulPartitionedCall/model/stack_3/block_2/se_reshape/strided_slice", "StatefulPartitionedCall/model/stack_5/block_3/se_reshape/Reshape/shape/1", "StatefulPartitionedCall/model/stack_5/block_3/se_reshape/Reshape/shape/1", "StatefulPartitionedCall/model/stack_3/block_2/se_reshape/Reshape/shape/3"], "attr": {"axis": {"i": "0"}, "N": {"i": "4"}, "T": {"type": "DT_INT32"}}}, {"name": "StatefulPartitionedCall/model/stack_3/block_2/se_reshape/Reshape", "op": "Reshape", "input": ["StatefulPartitionedCall/model/stack_3/block_2/se_squeeze/Mean", "StatefulPartitionedCall/model/stack_3/block_2/se_reshape/Reshape/shape"], "attr": {"T": {"type": "DT_FLOAT"}, "Tshape": {"type": "DT_INT32"}}}, {"name": "StatefulPartitionedCall/model/stack_3/block_2/se_reduce_conv2d/BiasAdd", "op": "_FusedConv2D", "input": ["StatefulPartitionedCall/model/stack_3/block_2/se_reshape/Reshape", "Func/StatefulPartitionedCall/input/_145", "Func/StatefulPartitionedCall/input/_146"], "device": "/device:CPU:0", "attr": {"padding": {"s": "U0FNRQ=="}, "explicit_paddings": {"list": {}}, "dilations": {"list": {"i": ["1", "1", "1", "1"]}}, "data_format": {"s": "TkhXQw=="}, "use_cudnn_on_gpu": {"b": true}, "epsilon": {"f": 0.0}, "num_args": {"i": "1"}, "fused_ops": {"list": {"s": ["Qmlhc0FkZA=="]}}, "strides": {"list": {"i": ["1", "1", "1", "1"]}}, "T": {"type": "DT_FLOAT"}}}, {"name": "StatefulPartitionedCall/model/stack_3/block_2/se_reduce_activation/Sigmoid", "op": "Sigmoid", "input": ["StatefulPartitionedCall/model/stack_3/block_2/se_reduce_conv2d/BiasAdd"], "attr": {"T": {"type": "DT_FLOAT"}}}, {"name": "StatefulPartitionedCall/model/stack_3/block_2/se_reduce_activation/mul", "op": "Mul", "input": ["StatefulPartitionedCall/model/stack_3/block_2/se_reduce_activation/Sigmoid", "StatefulPartitionedCall/model/stack_3/block_2/se_reduce_conv2d/BiasAdd"], "attr": {"T": {"type": "DT_FLOAT"}}}, {"name": "StatefulPartitionedCall/model/stack_3/block_2/se_expand_conv2d/BiasAdd", "op": "_FusedConv2D", "input": ["StatefulPartitionedCall/model/stack_3/block_2/se_reduce_activation/mul", "Func/StatefulPartitionedCall/input/_147", "Func/StatefulPartitionedCall/input/_148"], "device": "/device:CPU:0", "attr": {"use_cudnn_on_gpu": {"b": true}, "explicit_paddings": {"list": {}}, "strides": {"list": {"i": ["1", "1", "1", "1"]}}, "dilations": {"list": {"i": ["1", "1", "1", "1"]}}, "T": {"type": "DT_FLOAT"}, "num_args": {"i": "1"}, "epsilon": {"f": 0.0}, "fused_ops": {"list": {"s": ["Qmlhc0FkZA=="]}}, "data_format": {"s": "TkhXQw=="}, "padding": {"s": "U0FNRQ=="}}}, {"name": "StatefulPartitionedCall/model/stack_3/block_2/se_expand_activation/Sigmoid", "op": "Sigmoid", "input": ["StatefulPartitionedCall/model/stack_3/block_2/se_expand_conv2d/BiasAdd"], "attr": {"T": {"type": "DT_FLOAT"}}}, {"name": "StatefulPartitionedCall/model/stack_3/block_2/se_excite/mul", "op": "Mul", "input": ["StatefulPartitionedCall/model/stack_3/block_2/depthwise_activation/mul", "StatefulPartitionedCall/model/stack_3/block_2/se_expand_activation/Sigmoid"], "attr": {"T": {"type": "DT_FLOAT"}}}, {"name": "StatefulPartitionedCall/model/stack_3/block_2/project_bn/FusedBatchNormV3", "op": "_FusedConv2D", "input": ["StatefulPartitionedCall/model/stack_3/block_2/se_excite/mul", "StatefulPartitionedCall/model/stack_3/block_2/project_conv2d/Conv2D_weights", "StatefulPartitionedCall/model/stack_3/block_2/project_conv2d/Conv2D_bn_offset"], "device": "/device:CPU:0", "attr": {"epsilon": {"f": 0.0}, "explicit_paddings": {"list": {}}, "dilations": {"list": {"i": ["1", "1", "1", "1"]}}, "padding": {"s": "U0FNRQ=="}, "strides": {"list": {"i": ["1", "1", "1", "1"]}}, "num_args": {"i": "1"}, "use_cudnn_on_gpu": {"b": true}, "T": {"type": "DT_FLOAT"}, "fused_ops": {"list": {"s": ["Qmlhc0FkZA=="]}}, "data_format": {"s": "TkhXQw=="}}}, {"name": "StatefulPartitionedCall/model/stack_3/block_2/add/add", "op": "AddV2", "input": ["StatefulPartitionedCall/model/stack_3/block_1/add/add", "StatefulPartitionedCall/model/stack_3/block_2/project_bn/FusedBatchNormV3"], "attr": {"T": {"type": "DT_FLOAT"}}}, {"name": "StatefulPartitionedCall/model/stack_4/block_0/expand_bn/FusedBatchNormV3", "op": "_FusedConv2D", "input": ["StatefulPartitionedCall/model/stack_3/block_2/add/add", "StatefulPartitionedCall/model/stack_4/block_0/expand_conv2d/Conv2D_weights", "StatefulPartitionedCall/model/stack_4/block_0/expand_conv2d/Conv2D_bn_offset"], "device": "/device:CPU:0", "attr": {"data_format": {"s": "TkhXQw=="}, "dilations": {"list": {"i": ["1", "1", "1", "1"]}}, "epsilon": {"f": 0.0}, "fused_ops": {"list": {"s": ["Qmlhc0FkZA=="]}}, "explicit_paddings": {"list": {}}, "use_cudnn_on_gpu": {"b": true}, "padding": {"s": "U0FNRQ=="}, "strides": {"list": {"i": ["1", "1", "1", "1"]}}, "T": {"type": "DT_FLOAT"}, "num_args": {"i": "1"}}}, {"name": "StatefulPartitionedCall/model/stack_4/block_0/expand_activation/Sigmoid", "op": "Sigmoid", "input": ["StatefulPartitionedCall/model/stack_4/block_0/expand_bn/FusedBatchNormV3"], "attr": {"T": {"type": "DT_FLOAT"}}}, {"name": "StatefulPartitionedCall/model/stack_4/block_0/expand_activation/mul", "op": "Mul", "input": ["StatefulPartitionedCall/model/stack_4/block_0/expand_activation/Sigmoid", "StatefulPartitionedCall/model/stack_4/block_0/expand_bn/FusedBatchNormV3"], "attr": {"T": {"type": "DT_FLOAT"}}}, {"name": "StatefulPartitionedCall/model/stack_4/block_0/depthwise_conv2d/depthwise", "op": "FusedDepthwiseConv2dNative", "input": ["StatefulPartitionedCall/model/stack_4/block_0/expand_activation/mul", "StatefulPartitionedCall/model/stack_4/block_0/depthwise_conv2d/depthwise_weights", "StatefulPartitionedCall/model/stack_4/block_0/depthwise_conv2d/depthwise_bn_offset"], "attr": {"T": {"type": "DT_FLOAT"}, "dilations": {"list": {"i": ["1", "1", "1", "1"]}}, "padding": {"s": "U0FNRQ=="}, "data_format": {"s": "TkhXQw=="}, "strides": {"list": {"i": ["1", "1", "1", "1"]}}, "num_args": {"i": "1"}, "fused_ops": {"list": {"s": ["Qmlhc0FkZA=="]}}}}, {"name": "StatefulPartitionedCall/model/stack_4/block_0/depthwise_activation/Sigmoid", "op": "Sigmoid", "input": ["StatefulPartitionedCall/model/stack_4/block_0/depthwise_conv2d/depthwise"], "attr": {"T": {"type": "DT_FLOAT"}}}, {"name": "StatefulPartitionedCall/model/stack_4/block_0/depthwise_activation/mul", "op": "Mul", "input": ["StatefulPartitionedCall/model/stack_4/block_0/depthwise_activation/Sigmoid", "StatefulPartitionedCall/model/stack_4/block_0/depthwise_conv2d/depthwise"], "attr": {"T": {"type": "DT_FLOAT"}}}, {"name": "StatefulPartitionedCall/model/stack_4/block_0/se_squeeze/Mean", "op": "Mean", "input": ["StatefulPartitionedCall/model/stack_4/block_0/depthwise_activation/mul", "StatefulPartitionedCall/model/stack_5/block_3/se_squeeze/Mean/reduction_indices"], "attr": {"Tidx": {"type": "DT_INT32"}, "T": {"type": "DT_FLOAT"}, "keep_dims": {"b": false}}}, {"name": "StatefulPartitionedCall/model/stack_4/block_0/se_reshape/Shape", "op": "Shape", "input": ["StatefulPartitionedCall/model/stack_4/block_0/se_squeeze/Mean"], "attr": {"out_type": {"type": "DT_INT32"}, "T": {"type": "DT_FLOAT"}}}, {"name": "StatefulPartitionedCall/model/stack_4/block_0/se_reshape/strided_slice", "op": "StridedSlice", "input": ["StatefulPartitionedCall/model/stack_4/block_0/se_reshape/Shape", "StatefulPartitionedCall/model/stack_5/block_3/se_reshape/strided_slice/stack", "StatefulPartitionedCall/model/stack_5/block_3/se_reshape/strided_slice/stack_1", "StatefulPartitionedCall/model/stack_5/block_3/se_reshape/strided_slice/stack_1"], "attr": {"end_mask": {"i": "0"}, "begin_mask": {"i": "0"}, "ellipsis_mask": {"i": "0"}, "shrink_axis_mask": {"i": "1"}, "Index": {"type": "DT_INT32"}, "new_axis_mask": {"i": "0"}, "T": {"type": "DT_INT32"}}}, {"name": "StatefulPartitionedCall/model/stack_4/block_0/se_reshape/Reshape/shape", "op": "Pack", "input": ["StatefulPartitionedCall/model/stack_4/block_0/se_reshape/strided_slice", "StatefulPartitionedCall/model/stack_5/block_3/se_reshape/Reshape/shape/1", "StatefulPartitionedCall/model/stack_5/block_3/se_reshape/Reshape/shape/1", "StatefulPartitionedCall/model/stack_3/block_2/se_reshape/Reshape/shape/3"], "attr": {"N": {"i": "4"}, "axis": {"i": "0"}, "T": {"type": "DT_INT32"}}}, {"name": "StatefulPartitionedCall/model/stack_4/block_0/se_reshape/Reshape", "op": "Reshape", "input": ["StatefulPartitionedCall/model/stack_4/block_0/se_squeeze/Mean", "StatefulPartitionedCall/model/stack_4/block_0/se_reshape/Reshape/shape"], "attr": {"Tshape": {"type": "DT_INT32"}, "T": {"type": "DT_FLOAT"}}}, {"name": "StatefulPartitionedCall/model/stack_4/block_0/se_reduce_conv2d/BiasAdd", "op": "_FusedConv2D", "input": ["StatefulPartitionedCall/model/stack_4/block_0/se_reshape/Reshape", "Func/StatefulPartitionedCall/input/_164", "Func/StatefulPartitionedCall/input/_165"], "device": "/device:CPU:0", "attr": {"explicit_paddings": {"list": {}}, "strides": {"list": {"i": ["1", "1", "1", "1"]}}, "epsilon": {"f": 0.0}, "use_cudnn_on_gpu": {"b": true}, "dilations": {"list": {"i": ["1", "1", "1", "1"]}}, "num_args": {"i": "1"}, "T": {"type": "DT_FLOAT"}, "padding": {"s": "U0FNRQ=="}, "data_format": {"s": "TkhXQw=="}, "fused_ops": {"list": {"s": ["Qmlhc0FkZA=="]}}}}, {"name": "StatefulPartitionedCall/model/stack_4/block_0/se_reduce_activation/Sigmoid", "op": "Sigmoid", "input": ["StatefulPartitionedCall/model/stack_4/block_0/se_reduce_conv2d/BiasAdd"], "attr": {"T": {"type": "DT_FLOAT"}}}, {"name": "StatefulPartitionedCall/model/stack_4/block_0/se_reduce_activation/mul", "op": "Mul", "input": ["StatefulPartitionedCall/model/stack_4/block_0/se_reduce_activation/Sigmoid", "StatefulPartitionedCall/model/stack_4/block_0/se_reduce_conv2d/BiasAdd"], "attr": {"T": {"type": "DT_FLOAT"}}}, {"name": "StatefulPartitionedCall/model/stack_4/block_0/se_expand_conv2d/BiasAdd", "op": "_FusedConv2D", "input": ["StatefulPartitionedCall/model/stack_4/block_0/se_reduce_activation/mul", "Func/StatefulPartitionedCall/input/_166", "Func/StatefulPartitionedCall/input/_167"], "device": "/device:CPU:0", "attr": {"fused_ops": {"list": {"s": ["Qmlhc0FkZA=="]}}, "strides": {"list": {"i": ["1", "1", "1", "1"]}}, "padding": {"s": "U0FNRQ=="}, "epsilon": {"f": 0.0}, "num_args": {"i": "1"}, "data_format": {"s": "TkhXQw=="}, "dilations": {"list": {"i": ["1", "1", "1", "1"]}}, "T": {"type": "DT_FLOAT"}, "explicit_paddings": {"list": {}}, "use_cudnn_on_gpu": {"b": true}}}, {"name": "StatefulPartitionedCall/model/stack_4/block_0/se_expand_activation/Sigmoid", "op": "Sigmoid", "input": ["StatefulPartitionedCall/model/stack_4/block_0/se_expand_conv2d/BiasAdd"], "attr": {"T": {"type": "DT_FLOAT"}}}, {"name": "StatefulPartitionedCall/model/stack_4/block_0/se_excite/mul", "op": "Mul", "input": ["StatefulPartitionedCall/model/stack_4/block_0/depthwise_activation/mul", "StatefulPartitionedCall/model/stack_4/block_0/se_expand_activation/Sigmoid"], "attr": {"T": {"type": "DT_FLOAT"}}}, {"name": "StatefulPartitionedCall/model/stack_4/block_0/project_bn/FusedBatchNormV3", "op": "_FusedConv2D", "input": ["StatefulPartitionedCall/model/stack_4/block_0/se_excite/mul", "StatefulPartitionedCall/model/stack_4/block_0/project_conv2d/Conv2D_weights", "StatefulPartitionedCall/model/stack_4/block_0/project_conv2d/Conv2D_bn_offset"], "device": "/device:CPU:0", "attr": {"data_format": {"s": "TkhXQw=="}, "strides": {"list": {"i": ["1", "1", "1", "1"]}}, "num_args": {"i": "1"}, "T": {"type": "DT_FLOAT"}, "epsilon": {"f": 0.0}, "explicit_paddings": {"list": {}}, "padding": {"s": "U0FNRQ=="}, "dilations": {"list": {"i": ["1", "1", "1", "1"]}}, "fused_ops": {"list": {"s": ["Qmlhc0FkZA=="]}}, "use_cudnn_on_gpu": {"b": true}}}, {"name": "StatefulPartitionedCall/model/stack_4/block_1/expand_bn/FusedBatchNormV3", "op": "_FusedConv2D", "input": ["StatefulPartitionedCall/model/stack_4/block_0/project_bn/FusedBatchNormV3", "StatefulPartitionedCall/model/stack_4/block_1/expand_conv2d/Conv2D_weights", "StatefulPartitionedCall/model/stack_4/block_1/expand_conv2d/Conv2D_bn_offset"], "device": "/device:CPU:0", "attr": {"T": {"type": "DT_FLOAT"}, "epsilon": {"f": 0.0}, "padding": {"s": "U0FNRQ=="}, "num_args": {"i": "1"}, "dilations": {"list": {"i": ["1", "1", "1", "1"]}}, "use_cudnn_on_gpu": {"b": true}, "explicit_paddings": {"list": {}}, "data_format": {"s": "TkhXQw=="}, "strides": {"list": {"i": ["1", "1", "1", "1"]}}, "fused_ops": {"list": {"s": ["Qmlhc0FkZA=="]}}}}, {"name": "StatefulPartitionedCall/model/stack_4/block_1/expand_activation/Sigmoid", "op": "Sigmoid", "input": ["StatefulPartitionedCall/model/stack_4/block_1/expand_bn/FusedBatchNormV3"], "attr": {"T": {"type": "DT_FLOAT"}}}, {"name": "StatefulPartitionedCall/model/stack_4/block_1/expand_activation/mul", "op": "Mul", "input": ["StatefulPartitionedCall/model/stack_4/block_1/expand_activation/Sigmoid", "StatefulPartitionedCall/model/stack_4/block_1/expand_bn/FusedBatchNormV3"], "attr": {"T": {"type": "DT_FLOAT"}}}, {"name": "StatefulPartitionedCall/model/stack_4/block_1/depthwise_conv2d/depthwise", "op": "FusedDepthwiseConv2dNative", "input": ["StatefulPartitionedCall/model/stack_4/block_1/expand_activation/mul", "StatefulPartitionedCall/model/stack_4/block_1/depthwise_conv2d/depthwise_weights", "StatefulPartitionedCall/model/stack_4/block_1/depthwise_conv2d/depthwise_bn_offset"], "attr": {"T": {"type": "DT_FLOAT"}, "fused_ops": {"list": {"s": ["Qmlhc0FkZA=="]}}, "padding": {"s": "U0FNRQ=="}, "dilations": {"list": {"i": ["1", "1", "1", "1"]}}, "num_args": {"i": "1"}, "data_format": {"s": "TkhXQw=="}, "strides": {"list": {"i": ["1", "1", "1", "1"]}}}}, {"name": "StatefulPartitionedCall/model/stack_4/block_1/depthwise_activation/Sigmoid", "op": "Sigmoid", "input": ["StatefulPartitionedCall/model/stack_4/block_1/depthwise_conv2d/depthwise"], "attr": {"T": {"type": "DT_FLOAT"}}}, {"name": "StatefulPartitionedCall/model/stack_4/block_1/depthwise_activation/mul", "op": "Mul", "input": ["StatefulPartitionedCall/model/stack_4/block_1/depthwise_activation/Sigmoid", "StatefulPartitionedCall/model/stack_4/block_1/depthwise_conv2d/depthwise"], "attr": {"T": {"type": "DT_FLOAT"}}}, {"name": "StatefulPartitionedCall/model/stack_4/block_1/se_squeeze/Mean", "op": "Mean", "input": ["StatefulPartitionedCall/model/stack_4/block_1/depthwise_activation/mul", "StatefulPartitionedCall/model/stack_5/block_3/se_squeeze/Mean/reduction_indices"], "attr": {"keep_dims": {"b": false}, "T": {"type": "DT_FLOAT"}, "Tidx": {"type": "DT_INT32"}}}, {"name": "StatefulPartitionedCall/model/stack_4/block_1/se_reshape/Shape", "op": "Shape", "input": ["StatefulPartitionedCall/model/stack_4/block_1/se_squeeze/Mean"], "attr": {"out_type": {"type": "DT_INT32"}, "T": {"type": "DT_FLOAT"}}}, {"name": "StatefulPartitionedCall/model/stack_4/block_1/se_reshape/strided_slice", "op": "StridedSlice", "input": ["StatefulPartitionedCall/model/stack_4/block_1/se_reshape/Shape", "StatefulPartitionedCall/model/stack_5/block_3/se_reshape/strided_slice/stack", "StatefulPartitionedCall/model/stack_5/block_3/se_reshape/strided_slice/stack_1", "StatefulPartitionedCall/model/stack_5/block_3/se_reshape/strided_slice/stack_1"], "attr": {"begin_mask": {"i": "0"}, "Index": {"type": "DT_INT32"}, "end_mask": {"i": "0"}, "ellipsis_mask": {"i": "0"}, "T": {"type": "DT_INT32"}, "new_axis_mask": {"i": "0"}, "shrink_axis_mask": {"i": "1"}}}, {"name": "StatefulPartitionedCall/model/stack_4/block_1/se_reshape/Reshape/shape", "op": "Pack", "input": ["StatefulPartitionedCall/model/stack_4/block_1/se_reshape/strided_slice", "StatefulPartitionedCall/model/stack_5/block_3/se_reshape/Reshape/shape/1", "StatefulPartitionedCall/model/stack_5/block_3/se_reshape/Reshape/shape/1", "StatefulPartitionedCall/model/stack_4/block_2/se_reshape/Reshape/shape/3"], "attr": {"N": {"i": "4"}, "T": {"type": "DT_INT32"}, "axis": {"i": "0"}}}, {"name": "StatefulPartitionedCall/model/stack_4/block_1/se_reshape/Reshape", "op": "Reshape", "input": ["StatefulPartitionedCall/model/stack_4/block_1/se_squeeze/Mean", "StatefulPartitionedCall/model/stack_4/block_1/se_reshape/Reshape/shape"], "attr": {"Tshape": {"type": "DT_INT32"}, "T": {"type": "DT_FLOAT"}}}, {"name": "StatefulPartitionedCall/model/stack_4/block_1/se_reduce_conv2d/BiasAdd", "op": "_FusedConv2D", "input": ["StatefulPartitionedCall/model/stack_4/block_1/se_reshape/Reshape", "Func/StatefulPartitionedCall/input/_183", "Func/StatefulPartitionedCall/input/_184"], "device": "/device:CPU:0", "attr": {"num_args": {"i": "1"}, "dilations": {"list": {"i": ["1", "1", "1", "1"]}}, "strides": {"list": {"i": ["1", "1", "1", "1"]}}, "explicit_paddings": {"list": {}}, "use_cudnn_on_gpu": {"b": true}, "data_format": {"s": "TkhXQw=="}, "fused_ops": {"list": {"s": ["Qmlhc0FkZA=="]}}, "T": {"type": "DT_FLOAT"}, "epsilon": {"f": 0.0}, "padding": {"s": "U0FNRQ=="}}}, {"name": "StatefulPartitionedCall/model/stack_4/block_1/se_reduce_activation/Sigmoid", "op": "Sigmoid", "input": ["StatefulPartitionedCall/model/stack_4/block_1/se_reduce_conv2d/BiasAdd"], "attr": {"T": {"type": "DT_FLOAT"}}}, {"name": "StatefulPartitionedCall/model/stack_4/block_1/se_reduce_activation/mul", "op": "Mul", "input": ["StatefulPartitionedCall/model/stack_4/block_1/se_reduce_activation/Sigmoid", "StatefulPartitionedCall/model/stack_4/block_1/se_reduce_conv2d/BiasAdd"], "attr": {"T": {"type": "DT_FLOAT"}}}, {"name": "StatefulPartitionedCall/model/stack_4/block_1/se_expand_conv2d/BiasAdd", "op": "_FusedConv2D", "input": ["StatefulPartitionedCall/model/stack_4/block_1/se_reduce_activation/mul", "Func/StatefulPartitionedCall/input/_185", "Func/StatefulPartitionedCall/input/_186"], "device": "/device:CPU:0", "attr": {"strides": {"list": {"i": ["1", "1", "1", "1"]}}, "epsilon": {"f": 0.0}, "dilations": {"list": {"i": ["1", "1", "1", "1"]}}, "use_cudnn_on_gpu": {"b": true}, "padding": {"s": "U0FNRQ=="}, "T": {"type": "DT_FLOAT"}, "explicit_paddings": {"list": {}}, "fused_ops": {"list": {"s": ["Qmlhc0FkZA=="]}}, "num_args": {"i": "1"}, "data_format": {"s": "TkhXQw=="}}}, {"name": "StatefulPartitionedCall/model/stack_4/block_1/se_expand_activation/Sigmoid", "op": "Sigmoid", "input": ["StatefulPartitionedCall/model/stack_4/block_1/se_expand_conv2d/BiasAdd"], "attr": {"T": {"type": "DT_FLOAT"}}}, {"name": "StatefulPartitionedCall/model/stack_4/block_1/se_excite/mul", "op": "Mul", "input": ["StatefulPartitionedCall/model/stack_4/block_1/depthwise_activation/mul", "StatefulPartitionedCall/model/stack_4/block_1/se_expand_activation/Sigmoid"], "attr": {"T": {"type": "DT_FLOAT"}}}, {"name": "StatefulPartitionedCall/model/stack_4/block_1/project_bn/FusedBatchNormV3", "op": "_FusedConv2D", "input": ["StatefulPartitionedCall/model/stack_4/block_1/se_excite/mul", "StatefulPartitionedCall/model/stack_4/block_1/project_conv2d/Conv2D_weights", "StatefulPartitionedCall/model/stack_4/block_1/project_conv2d/Conv2D_bn_offset"], "device": "/device:CPU:0", "attr": {"epsilon": {"f": 0.0}, "fused_ops": {"list": {"s": ["Qmlhc0FkZA=="]}}, "explicit_paddings": {"list": {}}, "padding": {"s": "U0FNRQ=="}, "T": {"type": "DT_FLOAT"}, "num_args": {"i": "1"}, "dilations": {"list": {"i": ["1", "1", "1", "1"]}}, "use_cudnn_on_gpu": {"b": true}, "strides": {"list": {"i": ["1", "1", "1", "1"]}}, "data_format": {"s": "TkhXQw=="}}}, {"name": "StatefulPartitionedCall/model/stack_4/block_1/add/add", "op": "AddV2", "input": ["StatefulPartitionedCall/model/stack_4/block_0/project_bn/FusedBatchNormV3", "StatefulPartitionedCall/model/stack_4/block_1/project_bn/FusedBatchNormV3"], "attr": {"T": {"type": "DT_FLOAT"}}}, {"name": "StatefulPartitionedCall/model/stack_4/block_2/expand_bn/FusedBatchNormV3", "op": "_FusedConv2D", "input": ["StatefulPartitionedCall/model/stack_4/block_1/add/add", "StatefulPartitionedCall/model/stack_4/block_2/expand_conv2d/Conv2D_weights", "StatefulPartitionedCall/model/stack_4/block_2/expand_conv2d/Conv2D_bn_offset"], "device": "/device:CPU:0", "attr": {"explicit_paddings": {"list": {}}, "padding": {"s": "U0FNRQ=="}, "fused_ops": {"list": {"s": ["Qmlhc0FkZA=="]}}, "data_format": {"s": "TkhXQw=="}, "num_args": {"i": "1"}, "strides": {"list": {"i": ["1", "1", "1", "1"]}}, "epsilon": {"f": 0.0}, "T": {"type": "DT_FLOAT"}, "dilations": {"list": {"i": ["1", "1", "1", "1"]}}, "use_cudnn_on_gpu": {"b": true}}}, {"name": "StatefulPartitionedCall/model/stack_4/block_2/expand_activation/Sigmoid", "op": "Sigmoid", "input": ["StatefulPartitionedCall/model/stack_4/block_2/expand_bn/FusedBatchNormV3"], "attr": {"T": {"type": "DT_FLOAT"}}}, {"name": "StatefulPartitionedCall/model/stack_4/block_2/expand_activation/mul", "op": "Mul", "input": ["StatefulPartitionedCall/model/stack_4/block_2/expand_activation/Sigmoid", "StatefulPartitionedCall/model/stack_4/block_2/expand_bn/FusedBatchNormV3"], "attr": {"T": {"type": "DT_FLOAT"}}}, {"name": "StatefulPartitionedCall/model/stack_4/block_2/depthwise_conv2d/depthwise", "op": "FusedDepthwiseConv2dNative", "input": ["StatefulPartitionedCall/model/stack_4/block_2/expand_activation/mul", "StatefulPartitionedCall/model/stack_4/block_2/depthwise_conv2d/depthwise_weights", "StatefulPartitionedCall/model/stack_4/block_2/depthwise_conv2d/depthwise_bn_offset"], "attr": {"strides": {"list": {"i": ["1", "1", "1", "1"]}}, "fused_ops": {"list": {"s": ["Qmlhc0FkZA=="]}}, "dilations": {"list": {"i": ["1", "1", "1", "1"]}}, "T": {"type": "DT_FLOAT"}, "padding": {"s": "U0FNRQ=="}, "data_format": {"s": "TkhXQw=="}, "num_args": {"i": "1"}}}, {"name": "StatefulPartitionedCall/model/stack_4/block_2/depthwise_activation/Sigmoid", "op": "Sigmoid", "input": ["StatefulPartitionedCall/model/stack_4/block_2/depthwise_conv2d/depthwise"], "attr": {"T": {"type": "DT_FLOAT"}}}, {"name": "StatefulPartitionedCall/model/stack_4/block_2/depthwise_activation/mul", "op": "Mul", "input": ["StatefulPartitionedCall/model/stack_4/block_2/depthwise_activation/Sigmoid", "StatefulPartitionedCall/model/stack_4/block_2/depthwise_conv2d/depthwise"], "attr": {"T": {"type": "DT_FLOAT"}}}, {"name": "StatefulPartitionedCall/model/stack_4/block_2/se_squeeze/Mean", "op": "Mean", "input": ["StatefulPartitionedCall/model/stack_4/block_2/depthwise_activation/mul", "StatefulPartitionedCall/model/stack_5/block_3/se_squeeze/Mean/reduction_indices"], "attr": {"Tidx": {"type": "DT_INT32"}, "keep_dims": {"b": false}, "T": {"type": "DT_FLOAT"}}}, {"name": "StatefulPartitionedCall/model/stack_4/block_2/se_reshape/Shape", "op": "Shape", "input": ["StatefulPartitionedCall/model/stack_4/block_2/se_squeeze/Mean"], "attr": {"T": {"type": "DT_FLOAT"}, "out_type": {"type": "DT_INT32"}}}, {"name": "StatefulPartitionedCall/model/stack_4/block_2/se_reshape/strided_slice", "op": "StridedSlice", "input": ["StatefulPartitionedCall/model/stack_4/block_2/se_reshape/Shape", "StatefulPartitionedCall/model/stack_5/block_3/se_reshape/strided_slice/stack", "StatefulPartitionedCall/model/stack_5/block_3/se_reshape/strided_slice/stack_1", "StatefulPartitionedCall/model/stack_5/block_3/se_reshape/strided_slice/stack_1"], "attr": {"T": {"type": "DT_INT32"}, "new_axis_mask": {"i": "0"}, "end_mask": {"i": "0"}, "shrink_axis_mask": {"i": "1"}, "Index": {"type": "DT_INT32"}, "begin_mask": {"i": "0"}, "ellipsis_mask": {"i": "0"}}}, {"name": "StatefulPartitionedCall/model/stack_4/block_2/se_reshape/Reshape/shape", "op": "Pack", "input": ["StatefulPartitionedCall/model/stack_4/block_2/se_reshape/strided_slice", "StatefulPartitionedCall/model/stack_5/block_3/se_reshape/Reshape/shape/1", "StatefulPartitionedCall/model/stack_5/block_3/se_reshape/Reshape/shape/1", "StatefulPartitionedCall/model/stack_4/block_2/se_reshape/Reshape/shape/3"], "attr": {"N": {"i": "4"}, "T": {"type": "DT_INT32"}, "axis": {"i": "0"}}}, {"name": "StatefulPartitionedCall/model/stack_4/block_2/se_reshape/Reshape", "op": "Reshape", "input": ["StatefulPartitionedCall/model/stack_4/block_2/se_squeeze/Mean", "StatefulPartitionedCall/model/stack_4/block_2/se_reshape/Reshape/shape"], "attr": {"T": {"type": "DT_FLOAT"}, "Tshape": {"type": "DT_INT32"}}}, {"name": "StatefulPartitionedCall/model/stack_4/block_2/se_reduce_conv2d/BiasAdd", "op": "_FusedConv2D", "input": ["StatefulPartitionedCall/model/stack_4/block_2/se_reshape/Reshape", "Func/StatefulPartitionedCall/input/_202", "Func/StatefulPartitionedCall/input/_203"], "device": "/device:CPU:0", "attr": {"num_args": {"i": "1"}, "strides": {"list": {"i": ["1", "1", "1", "1"]}}, "padding": {"s": "U0FNRQ=="}, "dilations": {"list": {"i": ["1", "1", "1", "1"]}}, "use_cudnn_on_gpu": {"b": true}, "T": {"type": "DT_FLOAT"}, "data_format": {"s": "TkhXQw=="}, "fused_ops": {"list": {"s": ["Qmlhc0FkZA=="]}}, "epsilon": {"f": 0.0}, "explicit_paddings": {"list": {}}}}, {"name": "StatefulPartitionedCall/model/stack_4/block_2/se_reduce_activation/Sigmoid", "op": "Sigmoid", "input": ["StatefulPartitionedCall/model/stack_4/block_2/se_reduce_conv2d/BiasAdd"], "attr": {"T": {"type": "DT_FLOAT"}}}, {"name": "StatefulPartitionedCall/model/stack_4/block_2/se_reduce_activation/mul", "op": "Mul", "input": ["StatefulPartitionedCall/model/stack_4/block_2/se_reduce_activation/Sigmoid", "StatefulPartitionedCall/model/stack_4/block_2/se_reduce_conv2d/BiasAdd"], "attr": {"T": {"type": "DT_FLOAT"}}}, {"name": "StatefulPartitionedCall/model/stack_4/block_2/se_expand_conv2d/BiasAdd", "op": "_FusedConv2D", "input": ["StatefulPartitionedCall/model/stack_4/block_2/se_reduce_activation/mul", "Func/StatefulPartitionedCall/input/_204", "Func/StatefulPartitionedCall/input/_205"], "device": "/device:CPU:0", "attr": {"use_cudnn_on_gpu": {"b": true}, "fused_ops": {"list": {"s": ["Qmlhc0FkZA=="]}}, "num_args": {"i": "1"}, "epsilon": {"f": 0.0}, "dilations": {"list": {"i": ["1", "1", "1", "1"]}}, "strides": {"list": {"i": ["1", "1", "1", "1"]}}, "data_format": {"s": "TkhXQw=="}, "explicit_paddings": {"list": {}}, "T": {"type": "DT_FLOAT"}, "padding": {"s": "U0FNRQ=="}}}, {"name": "StatefulPartitionedCall/model/stack_4/block_2/se_expand_activation/Sigmoid", "op": "Sigmoid", "input": ["StatefulPartitionedCall/model/stack_4/block_2/se_expand_conv2d/BiasAdd"], "attr": {"T": {"type": "DT_FLOAT"}}}, {"name": "StatefulPartitionedCall/model/stack_4/block_2/se_excite/mul", "op": "Mul", "input": ["StatefulPartitionedCall/model/stack_4/block_2/depthwise_activation/mul", "StatefulPartitionedCall/model/stack_4/block_2/se_expand_activation/Sigmoid"], "attr": {"T": {"type": "DT_FLOAT"}}}, {"name": "StatefulPartitionedCall/model/stack_4/block_2/project_bn/FusedBatchNormV3", "op": "_FusedConv2D", "input": ["StatefulPartitionedCall/model/stack_4/block_2/se_excite/mul", "StatefulPartitionedCall/model/stack_4/block_2/project_conv2d/Conv2D_weights", "StatefulPartitionedCall/model/stack_4/block_2/project_conv2d/Conv2D_bn_offset"], "device": "/device:CPU:0", "attr": {"dilations": {"list": {"i": ["1", "1", "1", "1"]}}, "T": {"type": "DT_FLOAT"}, "fused_ops": {"list": {"s": ["Qmlhc0FkZA=="]}}, "num_args": {"i": "1"}, "use_cudnn_on_gpu": {"b": true}, "data_format": {"s": "TkhXQw=="}, "explicit_paddings": {"list": {}}, "strides": {"list": {"i": ["1", "1", "1", "1"]}}, "epsilon": {"f": 0.0}, "padding": {"s": "U0FNRQ=="}}}, {"name": "StatefulPartitionedCall/model/stack_4/block_2/add/add", "op": "AddV2", "input": ["StatefulPartitionedCall/model/stack_4/block_1/add/add", "StatefulPartitionedCall/model/stack_4/block_2/project_bn/FusedBatchNormV3"], "attr": {"T": {"type": "DT_FLOAT"}}}, {"name": "StatefulPartitionedCall/model/stack_5/block_0/expand_bn/FusedBatchNormV3", "op": "_FusedConv2D", "input": ["StatefulPartitionedCall/model/stack_4/block_2/add/add", "StatefulPartitionedCall/model/stack_5/block_0/expand_conv2d/Conv2D_weights", "StatefulPartitionedCall/model/stack_5/block_0/expand_conv2d/Conv2D_bn_offset"], "device": "/device:CPU:0", "attr": {"T": {"type": "DT_FLOAT"}, "epsilon": {"f": 0.0}, "use_cudnn_on_gpu": {"b": true}, "strides": {"list": {"i": ["1", "1", "1", "1"]}}, "num_args": {"i": "1"}, "fused_ops": {"list": {"s": ["Qmlhc0FkZA=="]}}, "dilations": {"list": {"i": ["1", "1", "1", "1"]}}, "explicit_paddings": {"list": {}}, "data_format": {"s": "TkhXQw=="}, "padding": {"s": "U0FNRQ=="}}}, {"name": "StatefulPartitionedCall/model/stack_5/block_0/expand_activation/Sigmoid", "op": "Sigmoid", "input": ["StatefulPartitionedCall/model/stack_5/block_0/expand_bn/FusedBatchNormV3"], "attr": {"T": {"type": "DT_FLOAT"}}}, {"name": "StatefulPartitionedCall/model/stack_5/block_0/expand_activation/mul", "op": "Mul", "input": ["StatefulPartitionedCall/model/stack_5/block_0/expand_activation/Sigmoid", "StatefulPartitionedCall/model/stack_5/block_0/expand_bn/FusedBatchNormV3"], "attr": {"T": {"type": "DT_FLOAT"}}}, {"name": "StatefulPartitionedCall/model/stack_5/block_0/depthwise_conv2d/depthwise", "op": "FusedDepthwiseConv2dNative", "input": ["StatefulPartitionedCall/model/stack_5/block_0/expand_activation/mul", "StatefulPartitionedCall/model/stack_5/block_0/depthwise_conv2d/depthwise_weights", "StatefulPartitionedCall/model/stack_5/block_0/depthwise_conv2d/depthwise_bn_offset"], "attr": {"fused_ops": {"list": {"s": ["Qmlhc0FkZA=="]}}, "padding": {"s": "U0FNRQ=="}, "num_args": {"i": "1"}, "T": {"type": "DT_FLOAT"}, "data_format": {"s": "TkhXQw=="}, "strides": {"list": {"i": ["1", "2", "2", "1"]}}, "dilations": {"list": {"i": ["1", "1", "1", "1"]}}}}, {"name": "StatefulPartitionedCall/model/stack_5/block_0/depthwise_activation/Sigmoid", "op": "Sigmoid", "input": ["StatefulPartitionedCall/model/stack_5/block_0/depthwise_conv2d/depthwise"], "attr": {"T": {"type": "DT_FLOAT"}}}, {"name": "StatefulPartitionedCall/model/stack_5/block_0/depthwise_activation/mul", "op": "Mul", "input": ["StatefulPartitionedCall/model/stack_5/block_0/depthwise_activation/Sigmoid", "StatefulPartitionedCall/model/stack_5/block_0/depthwise_conv2d/depthwise"], "attr": {"T": {"type": "DT_FLOAT"}}}, {"name": "StatefulPartitionedCall/model/stack_5/block_0/se_squeeze/Mean", "op": "Mean", "input": ["StatefulPartitionedCall/model/stack_5/block_0/depthwise_activation/mul", "StatefulPartitionedCall/model/stack_5/block_3/se_squeeze/Mean/reduction_indices"], "attr": {"Tidx": {"type": "DT_INT32"}, "T": {"type": "DT_FLOAT"}, "keep_dims": {"b": false}}}, {"name": "StatefulPartitionedCall/model/stack_5/block_0/se_reshape/Shape", "op": "Shape", "input": ["StatefulPartitionedCall/model/stack_5/block_0/se_squeeze/Mean"], "attr": {"out_type": {"type": "DT_INT32"}, "T": {"type": "DT_FLOAT"}}}, {"name": "StatefulPartitionedCall/model/stack_5/block_0/se_reshape/strided_slice", "op": "StridedSlice", "input": ["StatefulPartitionedCall/model/stack_5/block_0/se_reshape/Shape", "StatefulPartitionedCall/model/stack_5/block_3/se_reshape/strided_slice/stack", "StatefulPartitionedCall/model/stack_5/block_3/se_reshape/strided_slice/stack_1", "StatefulPartitionedCall/model/stack_5/block_3/se_reshape/strided_slice/stack_1"], "attr": {"T": {"type": "DT_INT32"}, "shrink_axis_mask": {"i": "1"}, "end_mask": {"i": "0"}, "Index": {"type": "DT_INT32"}, "new_axis_mask": {"i": "0"}, "begin_mask": {"i": "0"}, "ellipsis_mask": {"i": "0"}}}, {"name": "StatefulPartitionedCall/model/stack_5/block_0/se_reshape/Reshape/shape", "op": "Pack", "input": ["StatefulPartitionedCall/model/stack_5/block_0/se_reshape/strided_slice", "StatefulPartitionedCall/model/stack_5/block_3/se_reshape/Reshape/shape/1", "StatefulPartitionedCall/model/stack_5/block_3/se_reshape/Reshape/shape/1", "StatefulPartitionedCall/model/stack_4/block_2/se_reshape/Reshape/shape/3"], "attr": {"axis": {"i": "0"}, "N": {"i": "4"}, "T": {"type": "DT_INT32"}}}, {"name": "StatefulPartitionedCall/model/stack_5/block_0/se_reshape/Reshape", "op": "Reshape", "input": ["StatefulPartitionedCall/model/stack_5/block_0/se_squeeze/Mean", "StatefulPartitionedCall/model/stack_5/block_0/se_reshape/Reshape/shape"], "attr": {"Tshape": {"type": "DT_INT32"}, "T": {"type": "DT_FLOAT"}}}, {"name": "StatefulPartitionedCall/model/stack_5/block_0/se_reduce_conv2d/BiasAdd", "op": "_FusedConv2D", "input": ["StatefulPartitionedCall/model/stack_5/block_0/se_reshape/Reshape", "Func/StatefulPartitionedCall/input/_221", "Func/StatefulPartitionedCall/input/_222"], "device": "/device:CPU:0", "attr": {"use_cudnn_on_gpu": {"b": true}, "T": {"type": "DT_FLOAT"}, "padding": {"s": "U0FNRQ=="}, "strides": {"list": {"i": ["1", "1", "1", "1"]}}, "data_format": {"s": "TkhXQw=="}, "dilations": {"list": {"i": ["1", "1", "1", "1"]}}, "fused_ops": {"list": {"s": ["Qmlhc0FkZA=="]}}, "explicit_paddings": {"list": {}}, "epsilon": {"f": 0.0}, "num_args": {"i": "1"}}}, {"name": "StatefulPartitionedCall/model/stack_5/block_0/se_reduce_activation/Sigmoid", "op": "Sigmoid", "input": ["StatefulPartitionedCall/model/stack_5/block_0/se_reduce_conv2d/BiasAdd"], "attr": {"T": {"type": "DT_FLOAT"}}}, {"name": "StatefulPartitionedCall/model/stack_5/block_0/se_reduce_activation/mul", "op": "Mul", "input": ["StatefulPartitionedCall/model/stack_5/block_0/se_reduce_activation/Sigmoid", "StatefulPartitionedCall/model/stack_5/block_0/se_reduce_conv2d/BiasAdd"], "attr": {"T": {"type": "DT_FLOAT"}}}, {"name": "StatefulPartitionedCall/model/stack_5/block_0/se_expand_conv2d/BiasAdd", "op": "_FusedConv2D", "input": ["StatefulPartitionedCall/model/stack_5/block_0/se_reduce_activation/mul", "Func/StatefulPartitionedCall/input/_223", "Func/StatefulPartitionedCall/input/_224"], "device": "/device:CPU:0", "attr": {"fused_ops": {"list": {"s": ["Qmlhc0FkZA=="]}}, "use_cudnn_on_gpu": {"b": true}, "explicit_paddings": {"list": {}}, "T": {"type": "DT_FLOAT"}, "dilations": {"list": {"i": ["1", "1", "1", "1"]}}, "num_args": {"i": "1"}, "strides": {"list": {"i": ["1", "1", "1", "1"]}}, "padding": {"s": "U0FNRQ=="}, "epsilon": {"f": 0.0}, "data_format": {"s": "TkhXQw=="}}}, {"name": "StatefulPartitionedCall/model/stack_5/block_0/se_expand_activation/Sigmoid", "op": "Sigmoid", "input": ["StatefulPartitionedCall/model/stack_5/block_0/se_expand_conv2d/BiasAdd"], "attr": {"T": {"type": "DT_FLOAT"}}}, {"name": "StatefulPartitionedCall/model/stack_5/block_0/se_excite/mul", "op": "Mul", "input": ["StatefulPartitionedCall/model/stack_5/block_0/depthwise_activation/mul", "StatefulPartitionedCall/model/stack_5/block_0/se_expand_activation/Sigmoid"], "attr": {"T": {"type": "DT_FLOAT"}}}, {"name": "StatefulPartitionedCall/model/stack_5/block_0/project_bn/FusedBatchNormV3", "op": "_FusedConv2D", "input": ["StatefulPartitionedCall/model/stack_5/block_0/se_excite/mul", "StatefulPartitionedCall/model/stack_5/block_0/project_conv2d/Conv2D_weights", "StatefulPartitionedCall/model/stack_5/block_0/project_conv2d/Conv2D_bn_offset"], "device": "/device:CPU:0", "attr": {"fused_ops": {"list": {"s": ["Qmlhc0FkZA=="]}}, "explicit_paddings": {"list": {}}, "strides": {"list": {"i": ["1", "1", "1", "1"]}}, "data_format": {"s": "TkhXQw=="}, "padding": {"s": "U0FNRQ=="}, "dilations": {"list": {"i": ["1", "1", "1", "1"]}}, "use_cudnn_on_gpu": {"b": true}, "T": {"type": "DT_FLOAT"}, "epsilon": {"f": 0.0}, "num_args": {"i": "1"}}}, {"name": "StatefulPartitionedCall/model/stack_5/block_1/expand_bn/FusedBatchNormV3", "op": "_FusedConv2D", "input": ["StatefulPartitionedCall/model/stack_5/block_0/project_bn/FusedBatchNormV3", "StatefulPartitionedCall/model/stack_5/block_1/expand_conv2d/Conv2D_weights", "StatefulPartitionedCall/model/stack_5/block_1/expand_conv2d/Conv2D_bn_offset"], "device": "/device:CPU:0", "attr": {"explicit_paddings": {"list": {}}, "dilations": {"list": {"i": ["1", "1", "1", "1"]}}, "epsilon": {"f": 0.0}, "fused_ops": {"list": {"s": ["Qmlhc0FkZA=="]}}, "use_cudnn_on_gpu": {"b": true}, "data_format": {"s": "TkhXQw=="}, "T": {"type": "DT_FLOAT"}, "padding": {"s": "U0FNRQ=="}, "num_args": {"i": "1"}, "strides": {"list": {"i": ["1", "1", "1", "1"]}}}}, {"name": "StatefulPartitionedCall/model/stack_5/block_1/expand_activation/Sigmoid", "op": "Sigmoid", "input": ["StatefulPartitionedCall/model/stack_5/block_1/expand_bn/FusedBatchNormV3"], "attr": {"T": {"type": "DT_FLOAT"}}}, {"name": "StatefulPartitionedCall/model/stack_5/block_1/expand_activation/mul", "op": "Mul", "input": ["StatefulPartitionedCall/model/stack_5/block_1/expand_activation/Sigmoid", "StatefulPartitionedCall/model/stack_5/block_1/expand_bn/FusedBatchNormV3"], "attr": {"T": {"type": "DT_FLOAT"}}}, {"name": "StatefulPartitionedCall/model/stack_5/block_1/depthwise_conv2d/depthwise", "op": "FusedDepthwiseConv2dNative", "input": ["StatefulPartitionedCall/model/stack_5/block_1/expand_activation/mul", "StatefulPartitionedCall/model/stack_5/block_1/depthwise_conv2d/depthwise_weights", "StatefulPartitionedCall/model/stack_5/block_1/depthwise_conv2d/depthwise_bn_offset"], "attr": {"strides": {"list": {"i": ["1", "1", "1", "1"]}}, "fused_ops": {"list": {"s": ["Qmlhc0FkZA=="]}}, "T": {"type": "DT_FLOAT"}, "padding": {"s": "U0FNRQ=="}, "data_format": {"s": "TkhXQw=="}, "num_args": {"i": "1"}, "dilations": {"list": {"i": ["1", "1", "1", "1"]}}}}, {"name": "StatefulPartitionedCall/model/stack_5/block_1/depthwise_activation/Sigmoid", "op": "Sigmoid", "input": ["StatefulPartitionedCall/model/stack_5/block_1/depthwise_conv2d/depthwise"], "attr": {"T": {"type": "DT_FLOAT"}}}, {"name": "StatefulPartitionedCall/model/stack_5/block_1/depthwise_activation/mul", "op": "Mul", "input": ["StatefulPartitionedCall/model/stack_5/block_1/depthwise_activation/Sigmoid", "StatefulPartitionedCall/model/stack_5/block_1/depthwise_conv2d/depthwise"], "attr": {"T": {"type": "DT_FLOAT"}}}, {"name": "StatefulPartitionedCall/model/stack_5/block_1/se_squeeze/Mean", "op": "Mean", "input": ["StatefulPartitionedCall/model/stack_5/block_1/depthwise_activation/mul", "StatefulPartitionedCall/model/stack_5/block_3/se_squeeze/Mean/reduction_indices"], "attr": {"T": {"type": "DT_FLOAT"}, "keep_dims": {"b": false}, "Tidx": {"type": "DT_INT32"}}}, {"name": "StatefulPartitionedCall/model/stack_5/block_1/se_reshape/Shape", "op": "Shape", "input": ["StatefulPartitionedCall/model/stack_5/block_1/se_squeeze/Mean"], "attr": {"T": {"type": "DT_FLOAT"}, "out_type": {"type": "DT_INT32"}}}, {"name": "StatefulPartitionedCall/model/stack_5/block_1/se_reshape/strided_slice", "op": "StridedSlice", "input": ["StatefulPartitionedCall/model/stack_5/block_1/se_reshape/Shape", "StatefulPartitionedCall/model/stack_5/block_3/se_reshape/strided_slice/stack", "StatefulPartitionedCall/model/stack_5/block_3/se_reshape/strided_slice/stack_1", "StatefulPartitionedCall/model/stack_5/block_3/se_reshape/strided_slice/stack_1"], "attr": {"end_mask": {"i": "0"}, "Index": {"type": "DT_INT32"}, "new_axis_mask": {"i": "0"}, "begin_mask": {"i": "0"}, "ellipsis_mask": {"i": "0"}, "shrink_axis_mask": {"i": "1"}, "T": {"type": "DT_INT32"}}}, {"name": "StatefulPartitionedCall/model/stack_5/block_1/se_reshape/Reshape/shape", "op": "Pack", "input": ["StatefulPartitionedCall/model/stack_5/block_1/se_reshape/strided_slice", "StatefulPartitionedCall/model/stack_5/block_3/se_reshape/Reshape/shape/1", "StatefulPartitionedCall/model/stack_5/block_3/se_reshape/Reshape/shape/1", "StatefulPartitionedCall/model/stack_5/block_3/se_reshape/Reshape/shape/3"], "attr": {"N": {"i": "4"}, "axis": {"i": "0"}, "T": {"type": "DT_INT32"}}}, {"name": "StatefulPartitionedCall/model/stack_5/block_1/se_reshape/Reshape", "op": "Reshape", "input": ["StatefulPartitionedCall/model/stack_5/block_1/se_squeeze/Mean", "StatefulPartitionedCall/model/stack_5/block_1/se_reshape/Reshape/shape"], "attr": {"Tshape": {"type": "DT_INT32"}, "T": {"type": "DT_FLOAT"}}}, {"name": "StatefulPartitionedCall/model/stack_5/block_1/se_reduce_conv2d/BiasAdd", "op": "_FusedConv2D", "input": ["StatefulPartitionedCall/model/stack_5/block_1/se_reshape/Reshape", "Func/StatefulPartitionedCall/input/_240", "Func/StatefulPartitionedCall/input/_241"], "device": "/device:CPU:0", "attr": {"num_args": {"i": "1"}, "dilations": {"list": {"i": ["1", "1", "1", "1"]}}, "epsilon": {"f": 0.0}, "T": {"type": "DT_FLOAT"}, "strides": {"list": {"i": ["1", "1", "1", "1"]}}, "explicit_paddings": {"list": {}}, "data_format": {"s": "TkhXQw=="}, "padding": {"s": "U0FNRQ=="}, "fused_ops": {"list": {"s": ["Qmlhc0FkZA=="]}}, "use_cudnn_on_gpu": {"b": true}}}, {"name": "StatefulPartitionedCall/model/stack_5/block_1/se_reduce_activation/Sigmoid", "op": "Sigmoid", "input": ["StatefulPartitionedCall/model/stack_5/block_1/se_reduce_conv2d/BiasAdd"], "attr": {"T": {"type": "DT_FLOAT"}}}, {"name": "StatefulPartitionedCall/model/stack_5/block_1/se_reduce_activation/mul", "op": "Mul", "input": ["StatefulPartitionedCall/model/stack_5/block_1/se_reduce_activation/Sigmoid", "StatefulPartitionedCall/model/stack_5/block_1/se_reduce_conv2d/BiasAdd"], "attr": {"T": {"type": "DT_FLOAT"}}}, {"name": "StatefulPartitionedCall/model/stack_5/block_1/se_expand_conv2d/BiasAdd", "op": "_FusedConv2D", "input": ["StatefulPartitionedCall/model/stack_5/block_1/se_reduce_activation/mul", "Func/StatefulPartitionedCall/input/_242", "Func/StatefulPartitionedCall/input/_243"], "device": "/device:CPU:0", "attr": {"explicit_paddings": {"list": {}}, "strides": {"list": {"i": ["1", "1", "1", "1"]}}, "data_format": {"s": "TkhXQw=="}, "fused_ops": {"list": {"s": ["Qmlhc0FkZA=="]}}, "use_cudnn_on_gpu": {"b": true}, "epsilon": {"f": 0.0}, "num_args": {"i": "1"}, "T": {"type": "DT_FLOAT"}, "dilations": {"list": {"i": ["1", "1", "1", "1"]}}, "padding": {"s": "U0FNRQ=="}}}, {"name": "StatefulPartitionedCall/model/stack_5/block_1/se_expand_activation/Sigmoid", "op": "Sigmoid", "input": ["StatefulPartitionedCall/model/stack_5/block_1/se_expand_conv2d/BiasAdd"], "attr": {"T": {"type": "DT_FLOAT"}}}, {"name": "StatefulPartitionedCall/model/stack_5/block_1/se_excite/mul", "op": "Mul", "input": ["StatefulPartitionedCall/model/stack_5/block_1/depthwise_activation/mul", "StatefulPartitionedCall/model/stack_5/block_1/se_expand_activation/Sigmoid"], "attr": {"T": {"type": "DT_FLOAT"}}}, {"name": "StatefulPartitionedCall/model/stack_5/block_1/project_bn/FusedBatchNormV3", "op": "_FusedConv2D", "input": ["StatefulPartitionedCall/model/stack_5/block_1/se_excite/mul", "StatefulPartitionedCall/model/stack_5/block_1/project_conv2d/Conv2D_weights", "StatefulPartitionedCall/model/stack_5/block_1/project_conv2d/Conv2D_bn_offset"], "device": "/device:CPU:0", "attr": {"dilations": {"list": {"i": ["1", "1", "1", "1"]}}, "T": {"type": "DT_FLOAT"}, "fused_ops": {"list": {"s": ["Qmlhc0FkZA=="]}}, "padding": {"s": "U0FNRQ=="}, "use_cudnn_on_gpu": {"b": true}, "data_format": {"s": "TkhXQw=="}, "num_args": {"i": "1"}, "explicit_paddings": {"list": {}}, "strides": {"list": {"i": ["1", "1", "1", "1"]}}, "epsilon": {"f": 0.0}}}, {"name": "StatefulPartitionedCall/model/stack_5/block_1/add/add", "op": "AddV2", "input": ["StatefulPartitionedCall/model/stack_5/block_0/project_bn/FusedBatchNormV3", "StatefulPartitionedCall/model/stack_5/block_1/project_bn/FusedBatchNormV3"], "attr": {"T": {"type": "DT_FLOAT"}}}, {"name": "StatefulPartitionedCall/model/stack_5/block_2/expand_bn/FusedBatchNormV3", "op": "_FusedConv2D", "input": ["StatefulPartitionedCall/model/stack_5/block_1/add/add", "StatefulPartitionedCall/model/stack_5/block_2/expand_conv2d/Conv2D_weights", "StatefulPartitionedCall/model/stack_5/block_2/expand_conv2d/Conv2D_bn_offset"], "device": "/device:CPU:0", "attr": {"use_cudnn_on_gpu": {"b": true}, "T": {"type": "DT_FLOAT"}, "dilations": {"list": {"i": ["1", "1", "1", "1"]}}, "data_format": {"s": "TkhXQw=="}, "num_args": {"i": "1"}, "explicit_paddings": {"list": {}}, "strides": {"list": {"i": ["1", "1", "1", "1"]}}, "fused_ops": {"list": {"s": ["Qmlhc0FkZA=="]}}, "epsilon": {"f": 0.0}, "padding": {"s": "U0FNRQ=="}}}, {"name": "StatefulPartitionedCall/model/stack_5/block_2/expand_activation/Sigmoid", "op": "Sigmoid", "input": ["StatefulPartitionedCall/model/stack_5/block_2/expand_bn/FusedBatchNormV3"], "attr": {"T": {"type": "DT_FLOAT"}}}, {"name": "StatefulPartitionedCall/model/stack_5/block_2/expand_activation/mul", "op": "Mul", "input": ["StatefulPartitionedCall/model/stack_5/block_2/expand_activation/Sigmoid", "StatefulPartitionedCall/model/stack_5/block_2/expand_bn/FusedBatchNormV3"], "attr": {"T": {"type": "DT_FLOAT"}}}, {"name": "StatefulPartitionedCall/model/stack_5/block_2/depthwise_conv2d/depthwise", "op": "FusedDepthwiseConv2dNative", "input": ["StatefulPartitionedCall/model/stack_5/block_2/expand_activation/mul", "StatefulPartitionedCall/model/stack_5/block_2/depthwise_conv2d/depthwise_weights", "StatefulPartitionedCall/model/stack_5/block_2/depthwise_conv2d/depthwise_bn_offset"], "attr": {"T": {"type": "DT_FLOAT"}, "fused_ops": {"list": {"s": ["Qmlhc0FkZA=="]}}, "padding": {"s": "U0FNRQ=="}, "data_format": {"s": "TkhXQw=="}, "num_args": {"i": "1"}, "dilations": {"list": {"i": ["1", "1", "1", "1"]}}, "strides": {"list": {"i": ["1", "1", "1", "1"]}}}}, {"name": "StatefulPartitionedCall/model/stack_5/block_2/depthwise_activation/Sigmoid", "op": "Sigmoid", "input": ["StatefulPartitionedCall/model/stack_5/block_2/depthwise_conv2d/depthwise"], "attr": {"T": {"type": "DT_FLOAT"}}}, {"name": "StatefulPartitionedCall/model/stack_5/block_2/depthwise_activation/mul", "op": "Mul", "input": ["StatefulPartitionedCall/model/stack_5/block_2/depthwise_activation/Sigmoid", "StatefulPartitionedCall/model/stack_5/block_2/depthwise_conv2d/depthwise"], "attr": {"T": {"type": "DT_FLOAT"}}}, {"name": "StatefulPartitionedCall/model/stack_5/block_2/se_squeeze/Mean", "op": "Mean", "input": ["StatefulPartitionedCall/model/stack_5/block_2/depthwise_activation/mul", "StatefulPartitionedCall/model/stack_5/block_3/se_squeeze/Mean/reduction_indices"], "attr": {"Tidx": {"type": "DT_INT32"}, "keep_dims": {"b": false}, "T": {"type": "DT_FLOAT"}}}, {"name": "StatefulPartitionedCall/model/stack_5/block_2/se_reshape/Shape", "op": "Shape", "input": ["StatefulPartitionedCall/model/stack_5/block_2/se_squeeze/Mean"], "attr": {"out_type": {"type": "DT_INT32"}, "T": {"type": "DT_FLOAT"}}}, {"name": "StatefulPartitionedCall/model/stack_5/block_2/se_reshape/strided_slice", "op": "StridedSlice", "input": ["StatefulPartitionedCall/model/stack_5/block_2/se_reshape/Shape", "StatefulPartitionedCall/model/stack_5/block_3/se_reshape/strided_slice/stack", "StatefulPartitionedCall/model/stack_5/block_3/se_reshape/strided_slice/stack_1", "StatefulPartitionedCall/model/stack_5/block_3/se_reshape/strided_slice/stack_1"], "attr": {"T": {"type": "DT_INT32"}, "begin_mask": {"i": "0"}, "ellipsis_mask": {"i": "0"}, "end_mask": {"i": "0"}, "shrink_axis_mask": {"i": "1"}, "Index": {"type": "DT_INT32"}, "new_axis_mask": {"i": "0"}}}, {"name": "StatefulPartitionedCall/model/stack_5/block_2/se_reshape/Reshape/shape", "op": "Pack", "input": ["StatefulPartitionedCall/model/stack_5/block_2/se_reshape/strided_slice", "StatefulPartitionedCall/model/stack_5/block_3/se_reshape/Reshape/shape/1", "StatefulPartitionedCall/model/stack_5/block_3/se_reshape/Reshape/shape/1", "StatefulPartitionedCall/model/stack_5/block_3/se_reshape/Reshape/shape/3"], "attr": {"N": {"i": "4"}, "T": {"type": "DT_INT32"}, "axis": {"i": "0"}}}, {"name": "StatefulPartitionedCall/model/stack_5/block_2/se_reshape/Reshape", "op": "Reshape", "input": ["StatefulPartitionedCall/model/stack_5/block_2/se_squeeze/Mean", "StatefulPartitionedCall/model/stack_5/block_2/se_reshape/Reshape/shape"], "attr": {"T": {"type": "DT_FLOAT"}, "Tshape": {"type": "DT_INT32"}}}, {"name": "StatefulPartitionedCall/model/stack_5/block_2/se_reduce_conv2d/BiasAdd", "op": "_FusedConv2D", "input": ["StatefulPartitionedCall/model/stack_5/block_2/se_reshape/Reshape", "Func/StatefulPartitionedCall/input/_259", "Func/StatefulPartitionedCall/input/_260"], "device": "/device:CPU:0", "attr": {"dilations": {"list": {"i": ["1", "1", "1", "1"]}}, "num_args": {"i": "1"}, "padding": {"s": "U0FNRQ=="}, "fused_ops": {"list": {"s": ["Qmlhc0FkZA=="]}}, "strides": {"list": {"i": ["1", "1", "1", "1"]}}, "T": {"type": "DT_FLOAT"}, "data_format": {"s": "TkhXQw=="}, "epsilon": {"f": 0.0}, "use_cudnn_on_gpu": {"b": true}, "explicit_paddings": {"list": {}}}}, {"name": "StatefulPartitionedCall/model/stack_5/block_2/se_reduce_activation/Sigmoid", "op": "Sigmoid", "input": ["StatefulPartitionedCall/model/stack_5/block_2/se_reduce_conv2d/BiasAdd"], "attr": {"T": {"type": "DT_FLOAT"}}}, {"name": "StatefulPartitionedCall/model/stack_5/block_2/se_reduce_activation/mul", "op": "Mul", "input": ["StatefulPartitionedCall/model/stack_5/block_2/se_reduce_activation/Sigmoid", "StatefulPartitionedCall/model/stack_5/block_2/se_reduce_conv2d/BiasAdd"], "attr": {"T": {"type": "DT_FLOAT"}}}, {"name": "StatefulPartitionedCall/model/stack_5/block_2/se_expand_conv2d/BiasAdd", "op": "_FusedConv2D", "input": ["StatefulPartitionedCall/model/stack_5/block_2/se_reduce_activation/mul", "Func/StatefulPartitionedCall/input/_261", "Func/StatefulPartitionedCall/input/_262"], "device": "/device:CPU:0", "attr": {"use_cudnn_on_gpu": {"b": true}, "epsilon": {"f": 0.0}, "padding": {"s": "U0FNRQ=="}, "dilations": {"list": {"i": ["1", "1", "1", "1"]}}, "data_format": {"s": "TkhXQw=="}, "explicit_paddings": {"list": {}}, "fused_ops": {"list": {"s": ["Qmlhc0FkZA=="]}}, "num_args": {"i": "1"}, "T": {"type": "DT_FLOAT"}, "strides": {"list": {"i": ["1", "1", "1", "1"]}}}}, {"name": "StatefulPartitionedCall/model/stack_5/block_2/se_expand_activation/Sigmoid", "op": "Sigmoid", "input": ["StatefulPartitionedCall/model/stack_5/block_2/se_expand_conv2d/BiasAdd"], "attr": {"T": {"type": "DT_FLOAT"}}}, {"name": "StatefulPartitionedCall/model/stack_5/block_2/se_excite/mul", "op": "Mul", "input": ["StatefulPartitionedCall/model/stack_5/block_2/depthwise_activation/mul", "StatefulPartitionedCall/model/stack_5/block_2/se_expand_activation/Sigmoid"], "attr": {"T": {"type": "DT_FLOAT"}}}, {"name": "StatefulPartitionedCall/model/stack_5/block_2/project_bn/FusedBatchNormV3", "op": "_FusedConv2D", "input": ["StatefulPartitionedCall/model/stack_5/block_2/se_excite/mul", "StatefulPartitionedCall/model/stack_5/block_2/project_conv2d/Conv2D_weights", "StatefulPartitionedCall/model/stack_5/block_2/project_conv2d/Conv2D_bn_offset"], "device": "/device:CPU:0", "attr": {"num_args": {"i": "1"}, "epsilon": {"f": 0.0}, "dilations": {"list": {"i": ["1", "1", "1", "1"]}}, "use_cudnn_on_gpu": {"b": true}, "padding": {"s": "U0FNRQ=="}, "explicit_paddings": {"list": {}}, "fused_ops": {"list": {"s": ["Qmlhc0FkZA=="]}}, "data_format": {"s": "TkhXQw=="}, "strides": {"list": {"i": ["1", "1", "1", "1"]}}, "T": {"type": "DT_FLOAT"}}}, {"name": "StatefulPartitionedCall/model/stack_5/block_2/add/add", "op": "AddV2", "input": ["StatefulPartitionedCall/model/stack_5/block_1/add/add", "StatefulPartitionedCall/model/stack_5/block_2/project_bn/FusedBatchNormV3"], "attr": {"T": {"type": "DT_FLOAT"}}}, {"name": "StatefulPartitionedCall/model/stack_5/block_3/expand_bn/FusedBatchNormV3", "op": "_FusedConv2D", "input": ["StatefulPartitionedCall/model/stack_5/block_2/add/add", "StatefulPartitionedCall/model/stack_5/block_3/expand_conv2d/Conv2D_weights", "StatefulPartitionedCall/model/stack_5/block_3/expand_conv2d/Conv2D_bn_offset"], "device": "/device:CPU:0", "attr": {"dilations": {"list": {"i": ["1", "1", "1", "1"]}}, "epsilon": {"f": 0.0}, "data_format": {"s": "TkhXQw=="}, "explicit_paddings": {"list": {}}, "fused_ops": {"list": {"s": ["Qmlhc0FkZA=="]}}, "padding": {"s": "U0FNRQ=="}, "strides": {"list": {"i": ["1", "1", "1", "1"]}}, "use_cudnn_on_gpu": {"b": true}, "num_args": {"i": "1"}, "T": {"type": "DT_FLOAT"}}}, {"name": "StatefulPartitionedCall/model/stack_5/block_3/expand_activation/Sigmoid", "op": "Sigmoid", "input": ["StatefulPartitionedCall/model/stack_5/block_3/expand_bn/FusedBatchNormV3"], "attr": {"T": {"type": "DT_FLOAT"}}}, {"name": "StatefulPartitionedCall/model/stack_5/block_3/expand_activation/mul", "op": "Mul", "input": ["StatefulPartitionedCall/model/stack_5/block_3/expand_activation/Sigmoid", "StatefulPartitionedCall/model/stack_5/block_3/expand_bn/FusedBatchNormV3"], "attr": {"T": {"type": "DT_FLOAT"}}}, {"name": "StatefulPartitionedCall/model/stack_5/block_3/depthwise_conv2d/depthwise", "op": "FusedDepthwiseConv2dNative", "input": ["StatefulPartitionedCall/model/stack_5/block_3/expand_activation/mul", "StatefulPartitionedCall/model/stack_5/block_3/depthwise_conv2d/depthwise_weights", "StatefulPartitionedCall/model/stack_5/block_3/depthwise_conv2d/depthwise_bn_offset"], "attr": {"fused_ops": {"list": {"s": ["Qmlhc0FkZA=="]}}, "data_format": {"s": "TkhXQw=="}, "strides": {"list": {"i": ["1", "1", "1", "1"]}}, "padding": {"s": "U0FNRQ=="}, "num_args": {"i": "1"}, "dilations": {"list": {"i": ["1", "1", "1", "1"]}}, "T": {"type": "DT_FLOAT"}}}, {"name": "StatefulPartitionedCall/model/stack_5/block_3/depthwise_activation/Sigmoid", "op": "Sigmoid", "input": ["StatefulPartitionedCall/model/stack_5/block_3/depthwise_conv2d/depthwise"], "attr": {"T": {"type": "DT_FLOAT"}}}, {"name": "StatefulPartitionedCall/model/stack_5/block_3/depthwise_activation/mul", "op": "Mul", "input": ["StatefulPartitionedCall/model/stack_5/block_3/depthwise_activation/Sigmoid", "StatefulPartitionedCall/model/stack_5/block_3/depthwise_conv2d/depthwise"], "attr": {"T": {"type": "DT_FLOAT"}}}, {"name": "StatefulPartitionedCall/model/stack_5/block_3/se_squeeze/Mean", "op": "Mean", "input": ["StatefulPartitionedCall/model/stack_5/block_3/depthwise_activation/mul", "StatefulPartitionedCall/model/stack_5/block_3/se_squeeze/Mean/reduction_indices"], "attr": {"T": {"type": "DT_FLOAT"}, "keep_dims": {"b": false}, "Tidx": {"type": "DT_INT32"}}}, {"name": "StatefulPartitionedCall/model/stack_5/block_3/se_reshape/Shape", "op": "Shape", "input": ["StatefulPartitionedCall/model/stack_5/block_3/se_squeeze/Mean"], "attr": {"T": {"type": "DT_FLOAT"}, "out_type": {"type": "DT_INT32"}}}, {"name": "StatefulPartitionedCall/model/stack_5/block_3/se_reshape/strided_slice", "op": "StridedSlice", "input": ["StatefulPartitionedCall/model/stack_5/block_3/se_reshape/Shape", "StatefulPartitionedCall/model/stack_5/block_3/se_reshape/strided_slice/stack", "StatefulPartitionedCall/model/stack_5/block_3/se_reshape/strided_slice/stack_1", "StatefulPartitionedCall/model/stack_5/block_3/se_reshape/strided_slice/stack_1"], "attr": {"ellipsis_mask": {"i": "0"}, "end_mask": {"i": "0"}, "shrink_axis_mask": {"i": "1"}, "begin_mask": {"i": "0"}, "Index": {"type": "DT_INT32"}, "T": {"type": "DT_INT32"}, "new_axis_mask": {"i": "0"}}}, {"name": "StatefulPartitionedCall/model/stack_5/block_3/se_reshape/Reshape/shape", "op": "Pack", "input": ["StatefulPartitionedCall/model/stack_5/block_3/se_reshape/strided_slice", "StatefulPartitionedCall/model/stack_5/block_3/se_reshape/Reshape/shape/1", "StatefulPartitionedCall/model/stack_5/block_3/se_reshape/Reshape/shape/1", "StatefulPartitionedCall/model/stack_5/block_3/se_reshape/Reshape/shape/3"], "attr": {"axis": {"i": "0"}, "N": {"i": "4"}, "T": {"type": "DT_INT32"}}}, {"name": "StatefulPartitionedCall/model/stack_5/block_3/se_reshape/Reshape", "op": "Reshape", "input": ["StatefulPartitionedCall/model/stack_5/block_3/se_squeeze/Mean", "StatefulPartitionedCall/model/stack_5/block_3/se_reshape/Reshape/shape"], "attr": {"T": {"type": "DT_FLOAT"}, "Tshape": {"type": "DT_INT32"}}}, {"name": "StatefulPartitionedCall/model/stack_5/block_3/se_reduce_conv2d/BiasAdd", "op": "_FusedConv2D", "input": ["StatefulPartitionedCall/model/stack_5/block_3/se_reshape/Reshape", "Func/StatefulPartitionedCall/input/_278", "Func/StatefulPartitionedCall/input/_279"], "device": "/device:CPU:0", "attr": {"T": {"type": "DT_FLOAT"}, "strides": {"list": {"i": ["1", "1", "1", "1"]}}, "dilations": {"list": {"i": ["1", "1", "1", "1"]}}, "padding": {"s": "U0FNRQ=="}, "data_format": {"s": "TkhXQw=="}, "fused_ops": {"list": {"s": ["Qmlhc0FkZA=="]}}, "use_cudnn_on_gpu": {"b": true}, "epsilon": {"f": 0.0}, "num_args": {"i": "1"}, "explicit_paddings": {"list": {}}}}, {"name": "StatefulPartitionedCall/model/stack_5/block_3/se_reduce_activation/Sigmoid", "op": "Sigmoid", "input": ["StatefulPartitionedCall/model/stack_5/block_3/se_reduce_conv2d/BiasAdd"], "attr": {"T": {"type": "DT_FLOAT"}}}, {"name": "StatefulPartitionedCall/model/stack_5/block_3/se_reduce_activation/mul", "op": "Mul", "input": ["StatefulPartitionedCall/model/stack_5/block_3/se_reduce_activation/Sigmoid", "StatefulPartitionedCall/model/stack_5/block_3/se_reduce_conv2d/BiasAdd"], "attr": {"T": {"type": "DT_FLOAT"}}}, {"name": "StatefulPartitionedCall/model/stack_5/block_3/se_expand_conv2d/BiasAdd", "op": "_FusedConv2D", "input": ["StatefulPartitionedCall/model/stack_5/block_3/se_reduce_activation/mul", "Func/StatefulPartitionedCall/input/_280", "Func/StatefulPartitionedCall/input/_281"], "device": "/device:CPU:0", "attr": {"use_cudnn_on_gpu": {"b": true}, "fused_ops": {"list": {"s": ["Qmlhc0FkZA=="]}}, "strides": {"list": {"i": ["1", "1", "1", "1"]}}, "explicit_paddings": {"list": {}}, "T": {"type": "DT_FLOAT"}, "padding": {"s": "U0FNRQ=="}, "dilations": {"list": {"i": ["1", "1", "1", "1"]}}, "num_args": {"i": "1"}, "data_format": {"s": "TkhXQw=="}, "epsilon": {"f": 0.0}}}, {"name": "StatefulPartitionedCall/model/stack_5/block_3/se_expand_activation/Sigmoid", "op": "Sigmoid", "input": ["StatefulPartitionedCall/model/stack_5/block_3/se_expand_conv2d/BiasAdd"], "attr": {"T": {"type": "DT_FLOAT"}}}, {"name": "StatefulPartitionedCall/model/stack_5/block_3/se_excite/mul", "op": "Mul", "input": ["StatefulPartitionedCall/model/stack_5/block_3/depthwise_activation/mul", "StatefulPartitionedCall/model/stack_5/block_3/se_expand_activation/Sigmoid"], "attr": {"T": {"type": "DT_FLOAT"}}}, {"name": "StatefulPartitionedCall/model/stack_5/block_3/project_bn/FusedBatchNormV3", "op": "_FusedConv2D", "input": ["StatefulPartitionedCall/model/stack_5/block_3/se_excite/mul", "StatefulPartitionedCall/model/stack_5/block_3/project_conv2d/Conv2D_weights", "StatefulPartitionedCall/model/stack_5/block_3/project_conv2d/Conv2D_bn_offset"], "device": "/device:CPU:0", "attr": {"strides": {"list": {"i": ["1", "1", "1", "1"]}}, "use_cudnn_on_gpu": {"b": true}, "num_args": {"i": "1"}, "T": {"type": "DT_FLOAT"}, "epsilon": {"f": 0.0}, "dilations": {"list": {"i": ["1", "1", "1", "1"]}}, "fused_ops": {"list": {"s": ["Qmlhc0FkZA=="]}}, "padding": {"s": "U0FNRQ=="}, "explicit_paddings": {"list": {}}, "data_format": {"s": "TkhXQw=="}}}, {"name": "StatefulPartitionedCall/model/stack_5/block_3/add/add", "op": "AddV2", "input": ["StatefulPartitionedCall/model/stack_5/block_2/add/add", "StatefulPartitionedCall/model/stack_5/block_3/project_bn/FusedBatchNormV3"], "attr": {"T": {"type": "DT_FLOAT"}}}, {"name": "StatefulPartitionedCall/model/stack_6/block_0/expand_bn/FusedBatchNormV3", "op": "_FusedConv2D", "input": ["StatefulPartitionedCall/model/stack_5/block_3/add/add", "StatefulPartitionedCall/model/stack_6/block_0/expand_conv2d/Conv2D_weights", "StatefulPartitionedCall/model/stack_6/block_0/expand_conv2d/Conv2D_bn_offset"], "device": "/device:CPU:0", "attr": {"strides": {"list": {"i": ["1", "1", "1", "1"]}}, "use_cudnn_on_gpu": {"b": true}, "dilations": {"list": {"i": ["1", "1", "1", "1"]}}, "explicit_paddings": {"list": {}}, "padding": {"s": "U0FNRQ=="}, "data_format": {"s": "TkhXQw=="}, "num_args": {"i": "1"}, "T": {"type": "DT_FLOAT"}, "epsilon": {"f": 0.0}, "fused_ops": {"list": {"s": ["Qmlhc0FkZA=="]}}}}, {"name": "StatefulPartitionedCall/model/stack_6/block_0/expand_activation/Sigmoid", "op": "Sigmoid", "input": ["StatefulPartitionedCall/model/stack_6/block_0/expand_bn/FusedBatchNormV3"], "attr": {"T": {"type": "DT_FLOAT"}}}, {"name": "StatefulPartitionedCall/model/stack_6/block_0/expand_activation/mul", "op": "Mul", "input": ["StatefulPartitionedCall/model/stack_6/block_0/expand_activation/Sigmoid", "StatefulPartitionedCall/model/stack_6/block_0/expand_bn/FusedBatchNormV3"], "attr": {"T": {"type": "DT_FLOAT"}}}, {"name": "StatefulPartitionedCall/model/stack_6/block_0/depthwise_conv2d/depthwise", "op": "FusedDepthwiseConv2dNative", "input": ["StatefulPartitionedCall/model/stack_6/block_0/expand_activation/mul", "StatefulPartitionedCall/model/stack_6/block_0/depthwise_conv2d/depthwise_weights", "StatefulPartitionedCall/model/stack_6/block_0/depthwise_conv2d/depthwise_bn_offset"], "attr": {"strides": {"list": {"i": ["1", "1", "1", "1"]}}, "fused_ops": {"list": {"s": ["Qmlhc0FkZA=="]}}, "num_args": {"i": "1"}, "T": {"type": "DT_FLOAT"}, "data_format": {"s": "TkhXQw=="}, "padding": {"s": "U0FNRQ=="}, "dilations": {"list": {"i": ["1", "1", "1", "1"]}}}}, {"name": "StatefulPartitionedCall/model/stack_6/block_0/depthwise_activation/Sigmoid", "op": "Sigmoid", "input": ["StatefulPartitionedCall/model/stack_6/block_0/depthwise_conv2d/depthwise"], "attr": {"T": {"type": "DT_FLOAT"}}}, {"name": "StatefulPartitionedCall/model/stack_6/block_0/depthwise_activation/mul", "op": "Mul", "input": ["StatefulPartitionedCall/model/stack_6/block_0/depthwise_activation/Sigmoid", "StatefulPartitionedCall/model/stack_6/block_0/depthwise_conv2d/depthwise"], "attr": {"T": {"type": "DT_FLOAT"}}}, {"name": "StatefulPartitionedCall/model/stack_6/block_0/se_squeeze/Mean", "op": "Mean", "input": ["StatefulPartitionedCall/model/stack_6/block_0/depthwise_activation/mul", "StatefulPartitionedCall/model/stack_5/block_3/se_squeeze/Mean/reduction_indices"], "attr": {"Tidx": {"type": "DT_INT32"}, "keep_dims": {"b": false}, "T": {"type": "DT_FLOAT"}}}, {"name": "StatefulPartitionedCall/model/stack_6/block_0/se_reshape/Shape", "op": "Shape", "input": ["StatefulPartitionedCall/model/stack_6/block_0/se_squeeze/Mean"], "attr": {"out_type": {"type": "DT_INT32"}, "T": {"type": "DT_FLOAT"}}}, {"name": "StatefulPartitionedCall/model/stack_6/block_0/se_reshape/strided_slice", "op": "StridedSlice", "input": ["StatefulPartitionedCall/model/stack_6/block_0/se_reshape/Shape", "StatefulPartitionedCall/model/stack_5/block_3/se_reshape/strided_slice/stack", "StatefulPartitionedCall/model/stack_5/block_3/se_reshape/strided_slice/stack_1", "StatefulPartitionedCall/model/stack_5/block_3/se_reshape/strided_slice/stack_1"], "attr": {"ellipsis_mask": {"i": "0"}, "Index": {"type": "DT_INT32"}, "T": {"type": "DT_INT32"}, "new_axis_mask": {"i": "0"}, "begin_mask": {"i": "0"}, "shrink_axis_mask": {"i": "1"}, "end_mask": {"i": "0"}}}, {"name": "StatefulPartitionedCall/model/stack_6/block_0/se_reshape/Reshape/shape", "op": "Pack", "input": ["StatefulPartitionedCall/model/stack_6/block_0/se_reshape/strided_slice", "StatefulPartitionedCall/model/stack_5/block_3/se_reshape/Reshape/shape/1", "StatefulPartitionedCall/model/stack_5/block_3/se_reshape/Reshape/shape/1", "StatefulPartitionedCall/model/stack_5/block_3/se_reshape/Reshape/shape/3"], "attr": {"T": {"type": "DT_INT32"}, "axis": {"i": "0"}, "N": {"i": "4"}}}, {"name": "StatefulPartitionedCall/model/stack_6/block_0/se_reshape/Reshape", "op": "Reshape", "input": ["StatefulPartitionedCall/model/stack_6/block_0/se_squeeze/Mean", "StatefulPartitionedCall/model/stack_6/block_0/se_reshape/Reshape/shape"], "attr": {"Tshape": {"type": "DT_INT32"}, "T": {"type": "DT_FLOAT"}}}, {"name": "StatefulPartitionedCall/model/stack_6/block_0/se_reduce_conv2d/BiasAdd", "op": "_FusedConv2D", "input": ["StatefulPartitionedCall/model/stack_6/block_0/se_reshape/Reshape", "Func/StatefulPartitionedCall/input/_297", "Func/StatefulPartitionedCall/input/_298"], "device": "/device:CPU:0", "attr": {"fused_ops": {"list": {"s": ["Qmlhc0FkZA=="]}}, "use_cudnn_on_gpu": {"b": true}, "data_format": {"s": "TkhXQw=="}, "strides": {"list": {"i": ["1", "1", "1", "1"]}}, "dilations": {"list": {"i": ["1", "1", "1", "1"]}}, "epsilon": {"f": 0.0}, "padding": {"s": "U0FNRQ=="}, "explicit_paddings": {"list": {}}, "T": {"type": "DT_FLOAT"}, "num_args": {"i": "1"}}}, {"name": "StatefulPartitionedCall/model/stack_6/block_0/se_reduce_activation/Sigmoid", "op": "Sigmoid", "input": ["StatefulPartitionedCall/model/stack_6/block_0/se_reduce_conv2d/BiasAdd"], "attr": {"T": {"type": "DT_FLOAT"}}}, {"name": "StatefulPartitionedCall/model/stack_6/block_0/se_reduce_activation/mul", "op": "Mul", "input": ["StatefulPartitionedCall/model/stack_6/block_0/se_reduce_activation/Sigmoid", "StatefulPartitionedCall/model/stack_6/block_0/se_reduce_conv2d/BiasAdd"], "attr": {"T": {"type": "DT_FLOAT"}}}, {"name": "StatefulPartitionedCall/model/stack_6/block_0/se_expand_conv2d/BiasAdd", "op": "_FusedConv2D", "input": ["StatefulPartitionedCall/model/stack_6/block_0/se_reduce_activation/mul", "Func/StatefulPartitionedCall/input/_299", "Func/StatefulPartitionedCall/input/_300"], "device": "/device:CPU:0", "attr": {"fused_ops": {"list": {"s": ["Qmlhc0FkZA=="]}}, "explicit_paddings": {"list": {}}, "epsilon": {"f": 0.0}, "data_format": {"s": "TkhXQw=="}, "T": {"type": "DT_FLOAT"}, "use_cudnn_on_gpu": {"b": true}, "dilations": {"list": {"i": ["1", "1", "1", "1"]}}, "padding": {"s": "U0FNRQ=="}, "strides": {"list": {"i": ["1", "1", "1", "1"]}}, "num_args": {"i": "1"}}}, {"name": "StatefulPartitionedCall/model/stack_6/block_0/se_expand_activation/Sigmoid", "op": "Sigmoid", "input": ["StatefulPartitionedCall/model/stack_6/block_0/se_expand_conv2d/BiasAdd"], "attr": {"T": {"type": "DT_FLOAT"}}}, {"name": "StatefulPartitionedCall/model/stack_6/block_0/se_excite/mul", "op": "Mul", "input": ["StatefulPartitionedCall/model/stack_6/block_0/depthwise_activation/mul", "StatefulPartitionedCall/model/stack_6/block_0/se_expand_activation/Sigmoid"], "attr": {"T": {"type": "DT_FLOAT"}}}, {"name": "StatefulPartitionedCall/model/stack_6/block_0/project_bn/FusedBatchNormV3", "op": "_FusedConv2D", "input": ["StatefulPartitionedCall/model/stack_6/block_0/se_excite/mul", "StatefulPartitionedCall/model/stack_6/block_0/project_conv2d/Conv2D_weights", "StatefulPartitionedCall/model/stack_6/block_0/project_conv2d/Conv2D_bn_offset"], "device": "/device:CPU:0", "attr": {"num_args": {"i": "1"}, "explicit_paddings": {"list": {}}, "strides": {"list": {"i": ["1", "1", "1", "1"]}}, "epsilon": {"f": 0.0}, "T": {"type": "DT_FLOAT"}, "data_format": {"s": "TkhXQw=="}, "dilations": {"list": {"i": ["1", "1", "1", "1"]}}, "use_cudnn_on_gpu": {"b": true}, "fused_ops": {"list": {"s": ["Qmlhc0FkZA=="]}}, "padding": {"s": "U0FNRQ=="}}}, {"name": "StatefulPartitionedCall/model/top_bn/FusedBatchNormV3", "op": "_FusedConv2D", "input": ["StatefulPartitionedCall/model/stack_6/block_0/project_bn/FusedBatchNormV3", "StatefulPartitionedCall/model/top_conv2d/Conv2D_weights", "StatefulPartitionedCall/model/top_conv2d/Conv2D_bn_offset"], "device": "/device:CPU:0", "attr": {"T": {"type": "DT_FLOAT"}, "num_args": {"i": "1"}, "padding": {"s": "U0FNRQ=="}, "use_cudnn_on_gpu": {"b": true}, "strides": {"list": {"i": ["1", "1", "1", "1"]}}, "dilations": {"list": {"i": ["1", "1", "1", "1"]}}, "data_format": {"s": "TkhXQw=="}, "epsilon": {"f": 0.0}, "explicit_paddings": {"list": {}}, "fused_ops": {"list": {"s": ["Qmlhc0FkZA=="]}}}}, {"name": "StatefulPartitionedCall/model/top_activation/Sigmoid", "op": "Sigmoid", "input": ["StatefulPartitionedCall/model/top_bn/FusedBatchNormV3"], "attr": {"T": {"type": "DT_FLOAT"}}}, {"name": "StatefulPartitionedCall/model/top_activation/mul", "op": "Mul", "input": ["StatefulPartitionedCall/model/top_activation/Sigmoid", "StatefulPartitionedCall/model/top_bn/FusedBatchNormV3"], "attr": {"T": {"type": "DT_FLOAT"}}}, {"name": "StatefulPartitionedCall/model/top_pool/Mean", "op": "Mean", "input": ["StatefulPartitionedCall/model/top_activation/mul", "StatefulPartitionedCall/model/stack_5/block_3/se_squeeze/Mean/reduction_indices"], "attr": {"keep_dims": {"b": false}, "Tidx": {"type": "DT_INT32"}, "T": {"type": "DT_FLOAT"}}}, {"name": "StatefulPartitionedCall/model/logits/BiasAdd", "op": "_FusedMatMul", "input": ["StatefulPartitionedCall/model/top_pool/Mean", "Func/StatefulPartitionedCall/input/_311", "Func/StatefulPartitionedCall/input/_312"], "device": "/device:CPU:0", "attr": {"transpose_b": {"b": false}, "num_args": {"i": "1"}, "transpose_a": {"b": false}, "fused_ops": {"list": {"s": ["Qmlhc0FkZA=="]}}, "T": {"type": "DT_FLOAT"}, "epsilon": {"f": 0.0}}}, {"name": "StatefulPartitionedCall/model/probs/Softmax", "op": "Softmax", "input": ["StatefulPartitionedCall/model/logits/BiasAdd"], "attr": {"T": {"type": "DT_FLOAT"}}}, {"name": "Identity", "op": "Identity", "input": ["StatefulPartitionedCall/model/probs/Softmax"], "attr": {"T": {"type": "DT_FLOAT"}}}], "library": {}, "versions": {"producer": 175}}, "weightsManifest": [{"paths": ["group1-shard1of6.bin", "group1-shard2of6.bin", "group1-shard3of6.bin", "group1-shard4of6.bin", "group1-shard5of6.bin", "group1-shard6of6.bin"], "weights": [{"name": "StatefulPartitionedCall/model/stem_conv2d/Conv2D_weights", "shape": [3, 3, 3, 32], "dtype": "float32"}, {"name": "StatefulPartitionedCall/model/stem_conv2d/Conv2D_bn_offset", "shape": [32], "dtype": "float32"}, {"name": "StatefulPartitionedCall/model/stack_0/block_0/depthwise_conv2d/depthwise_weights", "shape": [3, 3, 32, 1], "dtype": "float32"}, {"name": "StatefulPartitionedCall/model/stack_0/block_0/depthwise_conv2d/depthwise_bn_offset", "shape": [32], "dtype": "float32"}, {"name": "StatefulPartitionedCall/model/stack_5/block_3/depthwise_conv2d/depthwise_weights", "shape": [5, 5, 1152, 1], "dtype": "float32"}, {"name": "StatefulPartitionedCall/model/stack_0/block_0/project_conv2d/Conv2D_weights", "shape": [1, 1, 32, 16], "dtype": "float32"}, {"name": "StatefulPartitionedCall/model/stack_0/block_0/project_conv2d/Conv2D_bn_offset", "shape": [16], "dtype": "float32"}, {"name": "StatefulPartitionedCall/model/stack_1/block_0/expand_conv2d/Conv2D_weights", "shape": [1, 1, 16, 96], "dtype": "float32"}, {"name": "StatefulPartitionedCall/model/stack_5/block_3/depthwise_conv2d/depthwise_bn_offset", "shape": [1152], "dtype": "float32"}, {"name": "StatefulPartitionedCall/model/stack_1/block_0/expand_conv2d/Conv2D_bn_offset", "shape": [96], "dtype": "float32"}, {"name": "StatefulPartitionedCall/model/stack_1/block_0/depthwise_conv2d/depthwise_weights", "shape": [3, 3, 96, 1], "dtype": "float32"}, {"name": "StatefulPartitionedCall/model/stack_1/block_0/depthwise_conv2d/depthwise_bn_offset", "shape": [96], "dtype": "float32"}, {"name": "StatefulPartitionedCall/model/stack_1/block_0/project_conv2d/Conv2D_weights", "shape": [1, 1, 96, 24], "dtype": "float32"}, {"name": "StatefulPartitionedCall/model/stack_1/block_0/project_conv2d/Conv2D_bn_offset", "shape": [24], "dtype": "float32"}, {"name": "StatefulPartitionedCall/model/stack_1/block_1/expand_conv2d/Conv2D_weights", "shape": [1, 1, 24, 144], "dtype": "float32"}, {"name": "StatefulPartitionedCall/model/stack_1/block_1/expand_conv2d/Conv2D_bn_offset", "shape": [144], "dtype": "float32"}, {"name": "StatefulPartitionedCall/model/stack_1/block_1/depthwise_conv2d/depthwise_weights", "shape": [3, 3, 144, 1], "dtype": "float32"}, {"name": "StatefulPartitionedCall/model/stack_1/block_1/depthwise_conv2d/depthwise_bn_offset", "shape": [144], "dtype": "float32"}, {"name": "StatefulPartitionedCall/model/stack_1/block_1/project_conv2d/Conv2D_weights", "shape": [1, 1, 144, 24], "dtype": "float32"}, {"name": "StatefulPartitionedCall/model/stack_1/block_1/project_conv2d/Conv2D_bn_offset", "shape": [24], "dtype": "float32"}, {"name": "StatefulPartitionedCall/model/stack_2/block_0/expand_conv2d/Conv2D_weights", "shape": [1, 1, 24, 144], "dtype": "float32"}, {"name": "StatefulPartitionedCall/model/stack_2/block_0/expand_conv2d/Conv2D_bn_offset", "shape": [144], "dtype": "float32"}, {"name": "StatefulPartitionedCall/model/stack_2/block_0/depthwise_conv2d/depthwise_weights", "shape": [5, 5, 144, 1], "dtype": "float32"}, {"name": "StatefulPartitionedCall/model/stack_2/block_0/depthwise_conv2d/depthwise_bn_offset", "shape": [144], "dtype": "float32"}, {"name": "StatefulPartitionedCall/model/top_conv2d/Conv2D_bn_offset", "shape": [1280], "dtype": "float32"}, {"name": "StatefulPartitionedCall/model/stack_2/block_0/project_conv2d/Conv2D_weights", "shape": [1, 1, 144, 40], "dtype": "float32"}, {"name": "StatefulPartitionedCall/model/stack_2/block_0/project_conv2d/Conv2D_bn_offset", "shape": [40], "dtype": "float32"}, {"name": "StatefulPartitionedCall/model/stack_2/block_1/expand_conv2d/Conv2D_weights", "shape": [1, 1, 40, 240], "dtype": "float32"}, {"name": "StatefulPartitionedCall/model/stack_2/block_1/expand_conv2d/Conv2D_bn_offset", "shape": [240], "dtype": "float32"}, {"name": "StatefulPartitionedCall/model/stack_2/block_1/depthwise_conv2d/depthwise_weights", "shape": [5, 5, 240, 1], "dtype": "float32"}, {"name": "StatefulPartitionedCall/model/stack_2/block_1/depthwise_conv2d/depthwise_bn_offset", "shape": [240], "dtype": "float32"}, {"name": "StatefulPartitionedCall/model/stack_2/block_1/project_conv2d/Conv2D_weights", "shape": [1, 1, 240, 40], "dtype": "float32"}, {"name": "StatefulPartitionedCall/model/stack_2/block_1/project_conv2d/Conv2D_bn_offset", "shape": [40], "dtype": "float32"}, {"name": "StatefulPartitionedCall/model/stack_3/block_0/expand_conv2d/Conv2D_weights", "shape": [1, 1, 40, 240], "dtype": "float32"}, {"name": "StatefulPartitionedCall/model/stack_3/block_0/expand_conv2d/Conv2D_bn_offset", "shape": [240], "dtype": "float32"}, {"name": "StatefulPartitionedCall/model/stack_3/block_0/depthwise_conv2d/depthwise_weights", "shape": [3, 3, 240, 1], "dtype": "float32"}, {"name": "StatefulPartitionedCall/model/stack_3/block_0/depthwise_conv2d/depthwise_bn_offset", "shape": [240], "dtype": "float32"}, {"name": "StatefulPartitionedCall/model/stack_5/block_3/project_conv2d/Conv2D_weights", "shape": [1, 1, 1152, 192], "dtype": "float32"}, {"name": "StatefulPartitionedCall/model/stack_3/block_0/project_conv2d/Conv2D_weights", "shape": [1, 1, 240, 80], "dtype": "float32"}, {"name": "StatefulPartitionedCall/model/stack_5/block_3/project_conv2d/Conv2D_bn_offset", "shape": [192], "dtype": "float32"}, {"name": "StatefulPartitionedCall/model/stack_3/block_0/project_conv2d/Conv2D_bn_offset", "shape": [80], "dtype": "float32"}, {"name": "StatefulPartitionedCall/model/stack_3/block_1/expand_conv2d/Conv2D_weights", "shape": [1, 1, 80, 480], "dtype": "float32"}, {"name": "StatefulPartitionedCall/model/stack_3/block_1/expand_conv2d/Conv2D_bn_offset", "shape": [480], "dtype": "float32"}, {"name": "StatefulPartitionedCall/model/stack_3/block_1/depthwise_conv2d/depthwise_weights", "shape": [3, 3, 480, 1], "dtype": "float32"}, {"name": "StatefulPartitionedCall/model/stack_3/block_1/depthwise_conv2d/depthwise_bn_offset", "shape": [480], "dtype": "float32"}, {"name": "StatefulPartitionedCall/model/stack_6/block_0/expand_conv2d/Conv2D_weights", "shape": [1, 1, 192, 1152], "dtype": "float32"}, {"name": "StatefulPartitionedCall/model/stack_3/block_1/project_conv2d/Conv2D_weights", "shape": [1, 1, 480, 80], "dtype": "float32"}, {"name": "StatefulPartitionedCall/model/stack_3/block_1/project_conv2d/Conv2D_bn_offset", "shape": [80], "dtype": "float32"}, {"name": "StatefulPartitionedCall/model/stack_3/block_2/expand_conv2d/Conv2D_weights", "shape": [1, 1, 80, 480], "dtype": "float32"}, {"name": "StatefulPartitionedCall/model/stack_6/block_0/expand_conv2d/Conv2D_bn_offset", "shape": [1152], "dtype": "float32"}, {"name": "StatefulPartitionedCall/model/stack_3/block_2/expand_conv2d/Conv2D_bn_offset", "shape": [480], "dtype": "float32"}, {"name": "StatefulPartitionedCall/model/stack_3/block_2/depthwise_conv2d/depthwise_weights", "shape": [3, 3, 480, 1], "dtype": "float32"}, {"name": "StatefulPartitionedCall/model/stack_3/block_2/depthwise_conv2d/depthwise_bn_offset", "shape": [480], "dtype": "float32"}, {"name": "StatefulPartitionedCall/model/stack_3/block_2/project_conv2d/Conv2D_weights", "shape": [1, 1, 480, 80], "dtype": "float32"}, {"name": "StatefulPartitionedCall/model/stack_3/block_2/project_conv2d/Conv2D_bn_offset", "shape": [80], "dtype": "float32"}, {"name": "StatefulPartitionedCall/model/stack_4/block_0/expand_conv2d/Conv2D_weights", "shape": [1, 1, 80, 480], "dtype": "float32"}, {"name": "StatefulPartitionedCall/model/stack_6/block_0/depthwise_conv2d/depthwise_weights", "shape": [3, 3, 1152, 1], "dtype": "float32"}, {"name": "StatefulPartitionedCall/model/stack_4/block_0/expand_conv2d/Conv2D_bn_offset", "shape": [480], "dtype": "float32"}, {"name": "StatefulPartitionedCall/model/stack_4/block_0/depthwise_conv2d/depthwise_weights", "shape": [5, 5, 480, 1], "dtype": "float32"}, {"name": "StatefulPartitionedCall/model/stack_4/block_0/depthwise_conv2d/depthwise_bn_offset", "shape": [480], "dtype": "float32"}, {"name": "StatefulPartitionedCall/model/stack_6/block_0/depthwise_conv2d/depthwise_bn_offset", "shape": [1152], "dtype": "float32"}, {"name": "StatefulPartitionedCall/model/stack_4/block_0/project_conv2d/Conv2D_weights", "shape": [1, 1, 480, 112], "dtype": "float32"}, {"name": "StatefulPartitionedCall/model/stack_4/block_0/project_conv2d/Conv2D_bn_offset", "shape": [112], "dtype": "float32"}, {"name": "StatefulPartitionedCall/model/stack_4/block_1/expand_conv2d/Conv2D_weights", "shape": [1, 1, 112, 672], "dtype": "float32"}, {"name": "StatefulPartitionedCall/model/stack_4/block_1/expand_conv2d/Conv2D_bn_offset", "shape": [672], "dtype": "float32"}, {"name": "StatefulPartitionedCall/model/stack_4/block_1/depthwise_conv2d/depthwise_weights", "shape": [5, 5, 672, 1], "dtype": "float32"}, {"name": "StatefulPartitionedCall/model/stack_4/block_1/depthwise_conv2d/depthwise_bn_offset", "shape": [672], "dtype": "float32"}, {"name": "StatefulPartitionedCall/model/stack_4/block_1/project_conv2d/Conv2D_weights", "shape": [1, 1, 672, 112], "dtype": "float32"}, {"name": "StatefulPartitionedCall/model/stack_4/block_1/project_conv2d/Conv2D_bn_offset", "shape": [112], "dtype": "float32"}, {"name": "StatefulPartitionedCall/model/stack_4/block_2/expand_conv2d/Conv2D_weights", "shape": [1, 1, 112, 672], "dtype": "float32"}, {"name": "StatefulPartitionedCall/model/stack_4/block_2/expand_conv2d/Conv2D_bn_offset", "shape": [672], "dtype": "float32"}, {"name": "StatefulPartitionedCall/model/stack_4/block_2/depthwise_conv2d/depthwise_weights", "shape": [5, 5, 672, 1], "dtype": "float32"}, {"name": "StatefulPartitionedCall/model/stack_4/block_2/depthwise_conv2d/depthwise_bn_offset", "shape": [672], "dtype": "float32"}, {"name": "StatefulPartitionedCall/model/stack_4/block_2/project_conv2d/Conv2D_weights", "shape": [1, 1, 672, 112], "dtype": "float32"}, {"name": "StatefulPartitionedCall/model/stack_4/block_2/project_conv2d/Conv2D_bn_offset", "shape": [112], "dtype": "float32"}, {"name": "StatefulPartitionedCall/model/stack_5/block_0/expand_conv2d/Conv2D_weights", "shape": [1, 1, 112, 672], "dtype": "float32"}, {"name": "StatefulPartitionedCall/model/stack_5/block_0/expand_conv2d/Conv2D_bn_offset", "shape": [672], "dtype": "float32"}, {"name": "StatefulPartitionedCall/model/stack_5/block_0/depthwise_conv2d/depthwise_weights", "shape": [5, 5, 672, 1], "dtype": "float32"}, {"name": "StatefulPartitionedCall/model/stack_5/block_0/depthwise_conv2d/depthwise_bn_offset", "shape": [672], "dtype": "float32"}, {"name": "StatefulPartitionedCall/model/stack_5/block_0/project_conv2d/Conv2D_weights", "shape": [1, 1, 672, 192], "dtype": "float32"}, {"name": "StatefulPartitionedCall/model/stack_5/block_0/project_conv2d/Conv2D_bn_offset", "shape": [192], "dtype": "float32"}, {"name": "StatefulPartitionedCall/model/stack_5/block_1/expand_conv2d/Conv2D_weights", "shape": [1, 1, 192, 1152], "dtype": "float32"}, {"name": "StatefulPartitionedCall/model/stack_5/block_1/expand_conv2d/Conv2D_bn_offset", "shape": [1152], "dtype": "float32"}, {"name": "StatefulPartitionedCall/model/stack_5/block_1/depthwise_conv2d/depthwise_weights", "shape": [5, 5, 1152, 1], "dtype": "float32"}, {"name": "StatefulPartitionedCall/model/stack_5/block_1/depthwise_conv2d/depthwise_bn_offset", "shape": [1152], "dtype": "float32"}, {"name": "StatefulPartitionedCall/model/stack_5/block_1/project_conv2d/Conv2D_weights", "shape": [1, 1, 1152, 192], "dtype": "float32"}, {"name": "StatefulPartitionedCall/model/stack_6/block_0/project_conv2d/Conv2D_weights", "shape": [1, 1, 1152, 320], "dtype": "float32"}, {"name": "StatefulPartitionedCall/model/stack_5/block_1/project_conv2d/Conv2D_bn_offset", "shape": [192], "dtype": "float32"}, {"name": "StatefulPartitionedCall/model/stack_5/block_2/expand_conv2d/Conv2D_weights", "shape": [1, 1, 192, 1152], "dtype": "float32"}, {"name": "StatefulPartitionedCall/model/stack_5/block_2/expand_conv2d/Conv2D_bn_offset", "shape": [1152], "dtype": "float32"}, {"name": "StatefulPartitionedCall/model/stack_5/block_2/depthwise_conv2d/depthwise_weights", "shape": [5, 5, 1152, 1], "dtype": "float32"}, {"name": "StatefulPartitionedCall/model/stack_5/block_2/depthwise_conv2d/depthwise_bn_offset", "shape": [1152], "dtype": "float32"}, {"name": "StatefulPartitionedCall/model/stack_6/block_0/project_conv2d/Conv2D_bn_offset", "shape": [320], "dtype": "float32"}, {"name": "StatefulPartitionedCall/model/stack_5/block_2/project_conv2d/Conv2D_weights", "shape": [1, 1, 1152, 192], "dtype": "float32"}, {"name": "StatefulPartitionedCall/model/top_conv2d/Conv2D_weights", "shape": [1, 1, 320, 1280], "dtype": "float32"}, {"name": "StatefulPartitionedCall/model/stack_5/block_2/project_conv2d/Conv2D_bn_offset", "shape": [192], "dtype": "float32"}, {"name": "StatefulPartitionedCall/model/stack_5/block_3/expand_conv2d/Conv2D_weights", "shape": [1, 1, 192, 1152], "dtype": "float32"}, {"name": "StatefulPartitionedCall/model/stack_5/block_3/expand_conv2d/Conv2D_bn_offset", "shape": [1152], "dtype": "float32"}, {"name": "StatefulPartitionedCall/model/tf_op_layer_BroadcastTo_1/BroadcastTo_1/input", "shape": [1, 1, 3], "dtype": "float32"}, {"name": "StatefulPartitionedCall/model/tf_op_layer_BroadcastTo/BroadcastTo/input", "shape": [1, 1, 3], "dtype": "float32"}, {"name": "StatefulPartitionedCall/model/tf_op_layer_Mul/Mul/y", "shape": [], "dtype": "float32"}, {"name": "StatefulPartitionedCall/model/stack_0/block_0/se_reshape/Reshape/shape/3", "shape": [], "dtype": "int32"}, {"name": "Func/StatefulPartitionedCall/input/_12", "shape": [1, 1, 32, 8], "dtype": "float32"}, {"name": "Func/StatefulPartitionedCall/input/_13", "shape": [8], "dtype": "float32"}, {"name": "Func/StatefulPartitionedCall/input/_14", "shape": [1, 1, 8, 32], "dtype": "float32"}, {"name": "Func/StatefulPartitionedCall/input/_15", "shape": [32], "dtype": "float32"}, {"name": "StatefulPartitionedCall/model/stack_1/block_0/se_reshape/Reshape/shape/3", "shape": [], "dtype": "int32"}, {"name": "Func/StatefulPartitionedCall/input/_31", "shape": [1, 1, 96, 4], "dtype": "float32"}, {"name": "Func/StatefulPartitionedCall/input/_32", "shape": [4], "dtype": "float32"}, {"name": "Func/StatefulPartitionedCall/input/_33", "shape": [1, 1, 4, 96], "dtype": "float32"}, {"name": "Func/StatefulPartitionedCall/input/_34", "shape": [96], "dtype": "float32"}, {"name": "Func/StatefulPartitionedCall/input/_50", "shape": [1, 1, 144, 6], "dtype": "float32"}, {"name": "Func/StatefulPartitionedCall/input/_51", "shape": [6], "dtype": "float32"}, {"name": "Func/StatefulPartitionedCall/input/_52", "shape": [1, 1, 6, 144], "dtype": "float32"}, {"name": "Func/StatefulPartitionedCall/input/_53", "shape": [144], "dtype": "float32"}, {"name": "StatefulPartitionedCall/model/stack_1/block_1/se_reshape/Reshape/shape/3", "shape": [], "dtype": "int32"}, {"name": "Func/StatefulPartitionedCall/input/_69", "shape": [1, 1, 144, 6], "dtype": "float32"}, {"name": "Func/StatefulPartitionedCall/input/_70", "shape": [6], "dtype": "float32"}, {"name": "Func/StatefulPartitionedCall/input/_71", "shape": [1, 1, 6, 144], "dtype": "float32"}, {"name": "Func/StatefulPartitionedCall/input/_72", "shape": [144], "dtype": "float32"}, {"name": "Func/StatefulPartitionedCall/input/_88", "shape": [1, 1, 240, 10], "dtype": "float32"}, {"name": "Func/StatefulPartitionedCall/input/_89", "shape": [10], "dtype": "float32"}, {"name": "Func/StatefulPartitionedCall/input/_90", "shape": [1, 1, 10, 240], "dtype": "float32"}, {"name": "Func/StatefulPartitionedCall/input/_91", "shape": [240], "dtype": "float32"}, {"name": "StatefulPartitionedCall/model/stack_2/block_1/se_reshape/Reshape/shape/3", "shape": [], "dtype": "int32"}, {"name": "Func/StatefulPartitionedCall/input/_107", "shape": [1, 1, 240, 10], "dtype": "float32"}, {"name": "Func/StatefulPartitionedCall/input/_108", "shape": [10], "dtype": "float32"}, {"name": "Func/StatefulPartitionedCall/input/_109", "shape": [1, 1, 10, 240], "dtype": "float32"}, {"name": "Func/StatefulPartitionedCall/input/_110", "shape": [240], "dtype": "float32"}, {"name": "Func/StatefulPartitionedCall/input/_126", "shape": [1, 1, 480, 20], "dtype": "float32"}, {"name": "Func/StatefulPartitionedCall/input/_127", "shape": [20], "dtype": "float32"}, {"name": "Func/StatefulPartitionedCall/input/_128", "shape": [1, 1, 20, 480], "dtype": "float32"}, {"name": "Func/StatefulPartitionedCall/input/_129", "shape": [480], "dtype": "float32"}, {"name": "Func/StatefulPartitionedCall/input/_145", "shape": [1, 1, 480, 20], "dtype": "float32"}, {"name": "Func/StatefulPartitionedCall/input/_146", "shape": [20], "dtype": "float32"}, {"name": "Func/StatefulPartitionedCall/input/_147", "shape": [1, 1, 20, 480], "dtype": "float32"}, {"name": "Func/StatefulPartitionedCall/input/_148", "shape": [480], "dtype": "float32"}, {"name": "StatefulPartitionedCall/model/stack_3/block_2/se_reshape/Reshape/shape/3", "shape": [], "dtype": "int32"}, {"name": "Func/StatefulPartitionedCall/input/_164", "shape": [1, 1, 480, 20], "dtype": "float32"}, {"name": "Func/StatefulPartitionedCall/input/_165", "shape": [20], "dtype": "float32"}, {"name": "Func/StatefulPartitionedCall/input/_166", "shape": [1, 1, 20, 480], "dtype": "float32"}, {"name": "Func/StatefulPartitionedCall/input/_167", "shape": [480], "dtype": "float32"}, {"name": "Func/StatefulPartitionedCall/input/_183", "shape": [1, 1, 672, 28], "dtype": "float32"}, {"name": "Func/StatefulPartitionedCall/input/_184", "shape": [28], "dtype": "float32"}, {"name": "Func/StatefulPartitionedCall/input/_185", "shape": [1, 1, 28, 672], "dtype": "float32"}, {"name": "Func/StatefulPartitionedCall/input/_186", "shape": [672], "dtype": "float32"}, {"name": "Func/StatefulPartitionedCall/input/_202", "shape": [1, 1, 672, 28], "dtype": "float32"}, {"name": "Func/StatefulPartitionedCall/input/_203", "shape": [28], "dtype": "float32"}, {"name": "Func/StatefulPartitionedCall/input/_204", "shape": [1, 1, 28, 672], "dtype": "float32"}, {"name": "Func/StatefulPartitionedCall/input/_205", "shape": [672], "dtype": "float32"}, {"name": "StatefulPartitionedCall/model/stack_4/block_2/se_reshape/Reshape/shape/3", "shape": [], "dtype": "int32"}, {"name": "Func/StatefulPartitionedCall/input/_221", "shape": [1, 1, 672, 28], "dtype": "float32"}, {"name": "Func/StatefulPartitionedCall/input/_222", "shape": [28], "dtype": "float32"}, {"name": "Func/StatefulPartitionedCall/input/_223", "shape": [1, 1, 28, 672], "dtype": "float32"}, {"name": "Func/StatefulPartitionedCall/input/_224", "shape": [672], "dtype": "float32"}, {"name": "Func/StatefulPartitionedCall/input/_240", "shape": [1, 1, 1152, 48], "dtype": "float32"}, {"name": "Func/StatefulPartitionedCall/input/_241", "shape": [48], "dtype": "float32"}, {"name": "Func/StatefulPartitionedCall/input/_242", "shape": [1, 1, 48, 1152], "dtype": "float32"}, {"name": "Func/StatefulPartitionedCall/input/_243", "shape": [1152], "dtype": "float32"}, {"name": "Func/StatefulPartitionedCall/input/_259", "shape": [1, 1, 1152, 48], "dtype": "float32"}, {"name": "Func/StatefulPartitionedCall/input/_260", "shape": [48], "dtype": "float32"}, {"name": "Func/StatefulPartitionedCall/input/_261", "shape": [1, 1, 48, 1152], "dtype": "float32"}, {"name": "Func/StatefulPartitionedCall/input/_262", "shape": [1152], "dtype": "float32"}, {"name": "Func/StatefulPartitionedCall/input/_278", "shape": [1, 1, 1152, 48], "dtype": "float32"}, {"name": "Func/StatefulPartitionedCall/input/_279", "shape": [48], "dtype": "float32"}, {"name": "Func/StatefulPartitionedCall/input/_280", "shape": [1, 1, 48, 1152], "dtype": "float32"}, {"name": "Func/StatefulPartitionedCall/input/_281", "shape": [1152], "dtype": "float32"}, {"name": "StatefulPartitionedCall/model/stack_5/block_3/se_reshape/strided_slice/stack", "shape": [1], "dtype": "int32"}, {"name": "StatefulPartitionedCall/model/stack_5/block_3/se_reshape/strided_slice/stack_1", "shape": [1], "dtype": "int32"}, {"name": "StatefulPartitionedCall/model/stack_5/block_3/se_reshape/Reshape/shape/1", "shape": [], "dtype": "int32"}, {"name": "StatefulPartitionedCall/model/stack_5/block_3/se_reshape/Reshape/shape/3", "shape": [], "dtype": "int32"}, {"name": "Func/StatefulPartitionedCall/input/_297", "shape": [1, 1, 1152, 48], "dtype": "float32"}, {"name": "Func/StatefulPartitionedCall/input/_298", "shape": [48], "dtype": "float32"}, {"name": "Func/StatefulPartitionedCall/input/_299", "shape": [1, 1, 48, 1152], "dtype": "float32"}, {"name": "Func/StatefulPartitionedCall/input/_300", "shape": [1152], "dtype": "float32"}, {"name": "StatefulPartitionedCall/model/stack_5/block_3/se_squeeze/Mean/reduction_indices", "shape": [2], "dtype": "int32"}, {"name": "Func/StatefulPartitionedCall/input/_311", "shape": [1280, 1000], "dtype": "float32"}, {"name": "Func/StatefulPartitionedCall/input/_312", "shape": [1000], "dtype": "float32"}]}]}